models/soccer_rl_ppo_final.onnx (onnx, 135680 bytes, 8 tensors)

policy.mlp_extractor.policy_net.0.weight f4 [128, 12]
0	0x3e7228d5	0.23648389
1	0x3cd9ec95	0.026602069
2	0x3d107456	0.035267197
3	0x3cc4a8f4	0.024006344
4	0xbe83ded7	-0.2575595
5	0x3b7d478d	0.0038647384
6	0xbdcdcac8	-0.10048443
7	0x3e061e02	0.13097385
8	0xbd39717c	-0.045274243
9	0x3e1bfdd1	0.15233542
10	0xbab68818	-0.0013926057
11	0x3d064b95	0.032786924
12	0xbe6a4585	-0.22878082
13	0xbefef826	-0.49798697
14	0x3e4857a6	0.19564685
15	0x3c74f37a	0.014950627
16	0x3dd2f0b2	0.10299815
17	0xbe30c7f7	-0.1726378
18	0xbde6adec	-0.11263642
19	0x3dc5f325	0.09665517
20	0x3dbd46be	0.092420086
21	0x3e322982	0.17398646
22	0x3ea52e6c	0.3226198
23	0x3d184645	0.03717639
24	0xbe231009	-0.15924086
25	0xbd3d9633	-0.04628582
26	0x3ea1f76d	0.31634083
27	0x3e1f99b3	0.15585975
28	0xbe24065a	-0.16018048
29	0x3e466f49	0.1937839
30	0x3d83a956	0.06428783
31	0x3e5e6a49	0.21720232
32	0x3dca9e27	0.098934464
33	0x3ccb4bef	0.024816481
34	0x3d92e814	0.07173172
35	0x3df3d702	0.11906244
36	0xbe03434a	-0.12818637
37	0x3e32e6b3	0.17470817
38	0xbe54a8aa	-0.20767465
39	0x3e5780d7	0.21045242
40	0xbdf8f3d9	-0.12155885
41	0xbd25988e	-0.04042869
42	0x3e836ef7	0.25670597
43	0xbdf2b828	-0.11851531
44	0x3cbe325f	0.023217378
45	0xbd169b07	-0.03676894
46	0x3e6c2231	0.23059918
47	0x3cd3e46e	0.02586576
48	0x3d521dfb	0.051298123
49	0x3e3c7add	0.18406244
50	0xbe2934b3	-0.1652401
51	0xbd1efc1e	-0.038814656
52	0xbe1b24f6	-0.15150818
53	0x3dd04587	0.10169511
54	0x3d23b221	0.0399648
55	0x3eafb7fa	0.3432005
56	0x3dae7524	0.085184366
57	0x3d273ea2	0.040831216
58	0x3dac7407	0.08420568
59	0x3d708cc6	0.058728002
60	0x3eba185d	0.36346713
61	0x3e14efc3	0.14544587
62	0xbe86d93c	-0.26337612
63	0xbcb361ef	-0.021897284
64	0x3cc6f4a1	0.02428657
65	0x3e0e361e	0.13887832
66	0xbd5debf9	-0.05418012
67	0x3db0aea5	0.08627061
68	0x39fe9818	0.00048559974
69	0xbdc09e7b	-0.09405228
70	0x3d8174bf	0.06321096
71	0x3d275b6d	0.040858675
72	0xbe32f4da	-0.17476216
73	0xbe9cdc82	-0.30636984
74	0x3f0264c4	0.50935006
75	0x3df81943	0.12114193
76	0x3e3f2244	0.18665415
77	0x3cefe00d	0.02928164
78	0xbcb9dad3	-0.022687351
79	0xbdc1f839	-0.09471173
80	0x3de56d83	0.11202528
81	0x3dae7ff0	0.08520496
82	0x3e8eadc0	0.27866936
83	0xbd8cec77	-0.068810396
84	0x3da26e57	0.07931202
85	0x3e63611a	0.2220501
86	0x3d678fe2	0.0565337
87	0x3e15f2cd	0.14643402
88	0x3d532af0	0.05155462
89	0xbccb1e93	-0.024794852
90	0xbdc9bd3f	-0.09850549
91	0x3cff45f2	0.031161282
92	0xbdf3d911	-0.119066365
93	0x3e028de4	0.1274944
94	0xbde7aa5b	-0.113117896
95	0xbc89e2a3	-0.016831702
96	0xbdc13cc1	-0.09435416
97	0xbe00de00	-0.12584686
98	0xbd5a468b	-0.05328993
99	0xbdcdb696	-0.10044591
100	0x3dbcfb3a	0.09227605
101	0x3c8c7334	0.017144777
102	0xbd709a5f	-0.05874097
103	0xbd3f7c58	-0.046749443
104	0xbe183944	-0.14865595
105	0x3e0e6c11	0.13908412
106	0x3e4b47c0	0.19851589
107	0xbe1b3905	-0.1515847
108	0x3e0838cf	0.13302921
109	0xbe204d3d	-0.15654464
110	0xbe42c4e5	-0.19020422
111	0xbd8a35f8	-0.06748575
112	0x3da5afcc	0.08090171
113	0x3e1d6321	0.15369846
114	0xbdba2a95	-0.09090153
115	0x3e18f119	0.14935721
116	0xbe006d3f	-0.12541674
117	0xbda2008b	-0.0791026
118	0x3b346731	0.0027527327
119	0xbe0452c2	-0.12922195
120	0xbe639045	-0.22223003
121	0x3e66efee	0.22552463
122	0xbec98b8d	-0.3936428
123	0x3e3dac7c	0.18522829
124	0x3e1a8bf7	0.15092455
125	0x3ddb6d68	0.10714227
126	0xbdbeb50b	-0.09311875
127	0x3dba6b63	0.09102514
128	0x3ce7e671	0.028308125
129	0xbd182d86	-0.03715279
130	0x3e803276	0.250385
131	0x3d85a9d5	0.065265335
132	0x3de770a9	0.11300785
133	0xbd1c768f	-0.038199004
134	0xbd91defb	-0.07122608
135	0xbe29f017	-0.16595493
136	0x3d4cf164	0.050034896
137	0xbbd055f5	-0.006357903
138	0xbe485f29	-0.1956755
139	0xbdb24800	-0.08705139
140	0xbd8a465d	-0.06751702
141	0xbd905fb8	-0.07049507
142	0x3cc725e9	0.02431007
143	0xbd886749	-0.06660325
144	0xbdc646b6	-0.09681456
145	0x3e8031d9	0.2503803
146	0xbe114fea	-0.14190641
147	0xbda8d0bf	-0.0824294
148	0xbe6eb28e	-0.233103
149	0x3d43fc4f	0.047848042
150	0x3e02893d	0.12747665
151	0xbe8cf43a	-0.2753008
152	0xbba5f80a	-0.005064969
153	0x3e8835e1	0.26603606
154	0x3e0a23e1	0.13490249
155	0xbdd081dc	-0.10181019
156	0xbe28aa95	-0.16471322
157	0xbf0048b3	-0.5011093
158	0x3f07fb57	0.5311789
159	0x3db0b807	0.086288504
160	0x3e45da1b	0.19321482
161	0x3e678e65	0.22612913
162	0xbe585936	-0.21127781
163	0xbc7f2a71	-0.015574084
164	0xbda7b944	-0.081896335
165	0x3e28e841	0.16494848
166	0x3ebd73d5	0.37002435
167	0xbe220b8d	-0.15824719
168	0xbdeb97d7	-0.115035705
169	0x3c5a21a8	0.013313688
170	0x3d98b35d	0.07456086
171	0x3dfbf9b0	0.123034835
172	0x3de51d4c	0.111872286
173	0x3e37555b	0.17903654
174	0xbe2635f2	-0.16231516
175	0x3c69fcb4	0.0142814405
176	0x3e39962b	0.18123691
177	0xbdef56d6	-0.116864845
178	0x3e2d7f25	0.16943033
179	0x3b5daa00	0.0033823252
180	0xbe9d2090	-0.30688906
181	0xbd2da0fe	-0.042389862
182	0x3f07f765	0.5311187
183	0x3d07df67	0.033172037
184	0x3cd77fa5	0.026305983
185	0x3e1e43b2	0.15455511
186	0xbe8cbb70	-0.27486753
187	0x3de07e0a	0.1096154
188	0x3d8d7f01	0.0690899
189	0x3d95cd90	0.073145986
190	0xbda5be76	-0.08092968
191	0x3e01217a	0.12610427
192	0x3c95a199	0.018265532
193	0xbd1b4ec3	-0.03791691
194	0xbdfac90a	-0.122453764
195	0xbbc1d63b	-0.005915431
196	0x3c10a663	0.008828732
197	0xbd8a4726	-0.06751852
198	0x3b235149	0.0024920276
199	0x3e23ab62	0.15983346
200	0xbe390851	-0.18069579
201	0x3dbe8fa3	0.0930474
202	0xbe3fb89f	-0.18722771
203	0x3e6849e7	0.22684442
204	0xbd6a5ebc	-0.057219252
205	0x3e792d22	0.24333623
206	0xbe389e5d	-0.18029161
207	0xbe16f799	-0.14742889
208	0xbd743d75	-0.059628922
209	0xbe4b15e2	-0.19832566
210	0xbc96004c	-0.018310688
211	0xbd74bcae	-0.05975025
212	0x3e6065c9	0.21913828
213	0x3d536d2f	0.051617797
214	0x3eca6d17	0.39536354
215	0x3e2251fd	0.15851589
216	0xbdd65e57	-0.10467213
217	0xbd309504	-0.043110862
218	0xbae43d76	-0.0017413336
219	0xbd414d9d	-0.04719316
220	0xbe5b989d	-0.21444936
221	0x3d8a7424	0.06760433
222	0x3dd4b6a0	0.103863955
223	0xbdd63fe7	-0.10461407
224	0xbc24bf92	-0.01005544
225	0xbe6a2c08	-0.22868359
226	0xbcd2a70f	-0.025714425
227	0xbd79aa80	-0.060953617
228	0xbdcedd86	-0.10100846
229	0xbd1b4bc7	-0.037914064
230	0x3e872d42	0.26401716
231	0x3de79b1d	0.113088824
232	0x3e10682b	0.14102237
233	0x3e20c30e	0.15699407
234	0xbe0b8342	-0.1362429
235	0x3cc7f266	0.024407577
236	0x3e022e8c	0.12713069
237	0x3d9fb84e	0.07798825
238	0x3c93f50a	0.01806118
239	0xbe16c26f	-0.14722608
240	0x3e39a7c5	0.18130405
241	0x3df9a4c0	0.12189627
242	0xbe2ce75b	-0.1688513
243	0xbd6823c8	-0.05667475
244	0x3d9b5167	0.07583886
245	0xbd353fe0	-0.04425037
246	0xbd1695ed	-0.036764074
247	0x3d842796	0.06452863
248	0xbe033e77	-0.12816797
249	0xbdb62769	-0.08894236
250	0xbca8388c	-0.020534776
251	0xbd62636a	-0.05527059
252	0x3e1c5da0	0.1527009
253	0xbe6ea557	-0.2330526
254	0xbcb1d4ed	-0.021707976
255	0x3e30784e	0.17233393

policy.mlp_extractor.policy_net.0.bias f4 [128]
0	0x3d97133f	0.07376718
1	0x3e728ebf	0.23687266
2	0x3deb2e61	0.114834554
3	0x3e71cec1	0.23614027
4	0x3e14a646	0.14516553
5	0xbcb24a3f	-0.021763919
6	0x3df05598	0.11735076
7	0xbc26f363	-0.010189864
8	0x3e55fd93	0.20897512
9	0xbd24d4b9	-0.04024193
10	0x3e87192c	0.26386392
11	0xbcbafe07	-0.022826208
12	0x3e246b08	0.16056454
13	0x3e2febcd	0.17179795
14	0x3e53a87a	0.20669737
15	0x3d95ad8c	0.07308492
16	0xba5c7c98	-0.00084109
17	0x3e48f680	0.19625282
18	0xbcde06f2	-0.027102921
19	0x3d89ff46	0.06738143
20	0x3b9f821a	0.0048678042
21	0x3cc8deeb	0.024520358
22	0x3dda4f8e	0.10659705
23	0xbc46eb82	-0.01214111
24	0xbd347b82	-0.0440631
25	0x3cd83090	0.026390344
26	0x3e0ead94	0.13933402
27	0x3c6132aa	0.013744989
28	0x3e4f6949	0.20255007
29	0x3e24c63a	0.16091242
30	0x3c69833a	0.014252478
31	0x3e648696	0.22316965
32	0x3e98db3e	0.2985477
33	0x3c4089d8	0.0117516145
34	0x3dd2b394	0.10288158
35	0x3dec39ba	0.11534448
36	0x39cacaf1	0.00038679646
37	0x3e1bdf19	0.15221824
38	0x3e7bbc74	0.24583608
39	0x3e08ddec	0.13365906
40	0xbc805ee6	-0.015670251
41	0x39a39448	0.0003120026
42	0x3da8aa37	0.08235591
43	0x3d12878c	0.0357738
44	0x3d141dc8	0.036161214
45	0x3d3941e7	0.045228865
46	0x3ea33151	0.31873563
47	0xba73f9c2	-0.0009306931
48	0xbd6303a5	-0.055423398
49	0xbd09f669	-0.03368226
50	0xbd02e04b	-0.031952184
51	0x3ea9f6d3	0.33196124
52	0x3dec8813	0.115493916
53	0x3e8f72b0	0.28017187
54	0xbd1f13fb	-0.038837414
55	0x3e632838	0.22183311
56	0x39bd4b3d	0.00036104946
57	0x3ba7f482	0.005125583
58	0x3dab4a51	0.08363784
59	0xbc8533a4	-0.016259976
60	0x3da2537a	0.07926078
61	0x3d1a53a6	0.03767743
62	0x3e32b0d3	0.17450266
63	0xbd035933	-0.03206749
64	0xbd48e928	-0.04905048
65	0xbc7e6351	-0.015526609
66	0x3e4a4289	0.19751944
67	0x3db12896	0.08650319
68	0x3e5934be	0.21211526
69	0x3e3d973c	0.18514723
70	0x3e722572	0.23647097
71	0x3e8b4fbf	0.2720928
72	0xbd808c0a	-0.0627671
73	0x3d4d96e9	0.050192747
74	0x3e2903ad	0.16505308
75	0xbc50b31b	-0.012738015
76	0x3e144a8e	0.14481565
77	0x3dbee562	0.09321095
78	0x3e3c0fb3	0.18365364
79	0x00000000	0.0
80	0x3dc22e3e	0.09481476
81	0xbc8ceec4	-0.017203696
82	0x3eb06bce	0.34457248
83	0xbb2756c6	-0.0025533899
84	0xbc5f6762	-0.013635488
85	0xbbcd1beb	-0.0062594316
86	0xbd0c8bad	-0.034312893
87	0xb39e8720	-7.3820274e-08
88	0xbd110895	-0.035408575
89	0xbafeac9b	-0.0019430103
90	0x3ea90b40	0.33016396
91	0x3c984eb6	0.01859222
92	0x3e449325	0.19196756
93	0x3da0bd27	0.07848578
94	0x3ddfb502	0.109231964
95	0x3e039bb6	0.12852368
96	0x3e301613	0.1719592
97	0x3d76ba74	0.06023641
98	0x3e51e4b8	0.20497406
99	0xbc3078b8	-0.010770969
100	0x3d286213	0.041109156
101	0x3e230a25	0.15921839
102	0x3e2436be	0.16036507
103	0x3e1ac71d	0.15115018
104	0x3e4137c8	0.18868935
105	0x3e62d33c	0.22150892
106	0x3a711d99	0.0009197831
107	0xbd162507	-0.036656406
108	0xbaedf72e	-0.001815533
109	0x3e0b0102	0.13574603
110	0x3e0ad79c	0.13558811
111	0x3e61dba4	0.22056442
112	0x3e8bc5b7	0.27299282
113	0xbc3b455f	-0.011430114
114	0x3c4e799a	0.012602234
115	0x3ccde7bd	0.025134915
116	0x3e34fdd2	0.1767495
117	0xbc77778b	-0.015104185
118	0x3ea5d25a	0.32387048
119	0x3dc3b033	0.09555092
120	0x3ecb8ebe	0.3975734
121	0x3da8b7b0	0.082381606
122	0x3d9d1b55	0.07671229
123	0x381caf38	3.7356484e-05
124	0x3d8bd6e8	0.068280995
125	0x3e26022f	0.1621177
126	0x3ed2d856	0.41180676
127	0x3b87e6ac	0.0041473713

policy.mlp_extractor.policy_net.2.weight f4 [128, 128]
0	0x3e19b401	0.15010072
1	0x3d7e9bd8	0.062160343
2	0xbda0de00	-0.07854843
3	0x3cacaa11	0.021077188
4	0x3e69c9d2	0.22830895
5	0x3e049f63	0.12951426
6	0x3c6eb7c6	0.014570182
7	0xbe073950	-0.13205457
8	0x3df2116a	0.11819728
9	0xbdbfc348	-0.09363419
10	0x3dbfb23a	0.09360166
11	0xbcaf23ce	-0.021379378
12	0xbdc50a4a	-0.09621103
13	0x3e06e651	0.13173796
14	0x3c9be6ce	0.019030955
15	0xbdc561e3	-0.09637811
16	0x3d280083	0.041016113
17	0xbe18d204	-0.14923865
18	0xbe5beec7	-0.21477805
19	0x3c8c583d	0.017131919
20	0x3c4d6429	0.012536087
21	0xbdeb48f3	-0.11488523
22	0xbd872f00	-0.066007614
23	0x3d4cf7e5	0.0500411
24	0x3e09a6d6	0.13442549
25	0x3d8ad2b8	0.06778473
26	0x3d23e494	0.04001291
27	0x3dd79a5e	0.1052749
28	0x3e8d2a43	0.27571306
29	0xbe47ae8d	-0.1950018
30	0xbe3ec79e	-0.18630835
31	0xbe21b9b1	-0.15793492
32	0x3df6ca8d	0.12050352
33	0x3d81d129	0.06338722
34	0xbe32261b	-0.17397349
35	0x3d95c998	0.073138416
36	0xbe7fa0fd	-0.24963756
37	0xbe06992a	-0.13144365
38	0x3d90353f	0.07041406
39	0x3e0ffdc8	0.14061654
40	0x3ca6243e	0.020280953
41	0x3d580464	0.052738562
42	0x3e87173f	0.26384923
43	0xbe1dcef1	-0.15410973
44	0xbd60d090	-0.0548864
45	0x3d6e7e7c	0.058226094
46	0x3d575c8e	0.0525785
47	0x3cb9c5ac	0.022677265
48	0x3bec109d	0.007204129
49	0xbe04ebe1	-0.12980606
50	0xbddf3a65	-0.1089981
51	0xbdf83ac6	-0.12120585
52	0xbe1876c2	-0.14889053
53	0xbc14bb28	-0.009077825
54	0xbdb1d397	-0.08682936
55	0x3e0b7e0b	0.136223
56	0xbe797d01	-0.24364091
57	0x3df69b2a	0.12041314
58	0x3d556a05	0.05210306
59	0xbd2f364d	-0.042776395
60	0xbd3a7ca7	-0.045529034
61	0x3dbab900	0.09117317
62	0xbdf53b82	-0.11974241
63	0xbd6b7cc4	-0.057492033
64	0x3b383f4c	0.00281139
65	0x3d499538	0.04921457
66	0xbda47cc7	-0.08031612
67	0xbe0fb1e3	-0.14032702
68	0x3bb6ac05	0.0055747055
69	0xbdaf3a5f	-0.08556055
70	0x3dbe5812	0.09294142
71	0x3e4b6396	0.19862208
72	0xbd967b52	-0.0734774
73	0x3cde4ff1	0.027137728
74	0x3e072bbd	0.13200279
75	0xbd1ee991	-0.038796965
76	0xbdbc0073	-0.09179773
77	0x3da71ec6	0.081601664
78	0x3d047bd2	0.032344647
79	0xbe9c5419	-0.3053291
80	0xbde02303	-0.10944178
81	0xbcec7d10	-0.028868228
82	0xbe331ab2	-0.17490652
83	0x3e107295	0.1410621
84	0x3e1248de	0.14285609
85	0xbcea78fa	-0.02862214
86	0x3bdcad4b	0.0067345253
87	0x3e8b4d24	0.2720729
88	0xbd8e6f35	-0.06954805
89	0x3d051f19	0.03250036
90	0x3d5d25fe	0.05399131
91	0x3de16a2e	0.1100658
92	0x3d4b2a7c	0.049601063
93	0x3e1eb947	0.15500365
94	0xbba6ceeb	-0.0050905845
95	0xbd139ede	-0.03604018
96	0xbe1f999b	-0.1558594
97	0x3e8cf3b6	0.27529687
98	0x3cc4c1e4	0.024018236
99	0x3d809297	0.0627796
100	0xbd0373c9	-0.032092843
101	0x3c08f60d	0.008359444
102	0x3e654bc5	0.22392185
103	0x3df8a363	0.121405385
104	0x3dda483d	0.106583096
105	0xbe378750	-0.17922711
106	0xbd067bd6	-0.032832943
107	0x3dad0aa8	0.08449298
108	0x3e73ca7b	0.23807709
109	0xbdc31fb7	-0.095275335
110	0x3df85dd7	0.121272735
111	0x3ca1ec21	0.019765915
112	0x3d03098b	0.031991523
113	0xbda031d0	-0.07822001
114	0xbdd0cac6	-0.10194926
115	0xbca9932d	-0.020700062
116	0x3ecc62fc	0.3991927
117	0x3da6c315	0.08142678
118	0x3e35af28	0.17742598
119	0xba912cf2	-0.0011076017
120	0x3d9f37a7	0.07774287
121	0xbe421a4b	-0.18955342
122	0xbdbce34a	-0.092230394
123	0x3e5c7dff	0.21532439
124	0x3e39ec16	0.18156466
125	0xbd3b97e0	-0.045799136
126	0xbdb260d6	-0.08709876
127	0x3da28c74	0.079369456
128	0xbd513fcf	-0.051086243
129	0xbe47ae13	-0.19499998
130	0xbe002693	-0.12514715
131	0xbceebaea	-0.029141862
132	0xbd5be71e	-0.053687207
133	0xbdb65fc1	-0.08904982
134	0xbda7969f	-0.081830256
135	0x3ea14f01	0.31505588
136	0xbd9859bd	-0.07438991
137	0x3e992e37	0.29918072
138	0xbe42ff05	-0.19042595
139	0xbe258133	-0.16162567
140	0xbe9134c8	-0.2836058
141	0xbd5c7ec8	-0.053831846
142	0xbdb1063b	-0.086437665
143	0x3e177755	0.14791615
144	0xbd6b38fa	-0.057427384
145	0x3d80ac68	0.06282884
146	0xbd92782e	-0.07151829
147	0xbe041db7	-0.1290196
148	0x3dd76943	0.10518124
149	0x3e646a41	0.22306158
150	0xbddfeca9	-0.10933811
151	0xbe102128	-0.14075148
152	0x3da1c052	0.0789801
153	0xbe7ca554	-0.24672443
154	0xbd7d63cf	-0.061862763
155	0xbd82fdf9	-0.06396098
156	0xbd34ff1e	-0.04418861
157	0xbdef7152	-0.11691536
158	0xbdbd601d	-0.09246848
159	0xbdb48447	-0.088142924
160	0xbd98ab75	-0.07454578
161	0xbce69faf	-0.028152315
162	0xbe5a4c1f	-0.213181
163	0xbcbbba75	-0.022916058
164	0xbd7f05f5	-0.06226154
165	0x3db349b7	0.08754294
166	0xbe7dfec9	-0.24804224
167	0xbe03df30	-0.12878108
168	0x3e29c31a	0.16578332
169	0x3df971c3	0.121799015
170	0x3c9b3eea	0.018950898
171	0x3cdcde5e	0.026961502
172	0x3e88b78f	0.26702544
173	0x3c1f33e7	0.009716964
174	0x3e020bd6	0.12699828
175	0x3da32190	0.07965386
176	0x3d865a5b	0.06560203
177	0xbcfe2b71	-0.031026574
178	0xbde8903b	-0.11355635
179	0xbcd69968	-0.026196197
180	0x3d71afb4	0.059005454
181	0xbdd7b29f	-0.10532116
182	0xbe58cb8f	-0.21171401
183	0x3e580f54	0.21099597
184	0xbbc7a94d	-0.0060931803
185	0x3e3cf04c	0.18451041
186	0x3e2a2fb3	0.16619758
187	0xbe11a9c2	-0.14224914
188	0x3ca88278	0.020570025
189	0x3d77ed9f	0.060529348
190	0x3c5b8c10	0.013400093
191	0xbdad4980	-0.08461285
192	0x3da4655e	0.08027147
193	0xbda43855	-0.08018557
194	0xbdf6495f	-0.12025713
195	0xbdab6c3a	-0.08370252
196	0xbddc4f3d	-0.10757301
197	0x3d3e9f48	0.04653862
198	0x3e61b125	0.22040232
199	0xbdfc6bc9	-0.12325246
200	0x3d87ebbf	0.06636762
201	0x3d40a5b8	0.04703304
202	0xbe6ecedd	-0.233211
203	0x3cd07fca	0.02545156
204	0xbdeabc66	-0.114617154
205	0x3d5da859	0.054115627
206	0xbd39e8d2	-0.04538805
207	0x3cdd6c3f	0.027029155
208	0x3e11aba0	0.14225626
209	0xbdd3aac3	-0.103353046
210	0xbd4d9eb7	-0.05020019
211	0xbd17af36	-0.03703233
212	0x3d7112f8	0.05885598
213	0xbc1dfd4e	-0.009642912
214	0xbcfc4907	-0.03079654
215	0x3e420dc8	0.1895057
216	0x381acca9	3.6907066e-05
217	0x3e4534d0	0.19258428
218	0x3db46c65	0.08809737
219	0xbd220c79	-0.039562676
220	0x3d5dd3f5	0.054157216
221	0xbc7dc653	-0.015489179
222	0xbc2bfceb	-0.010497312
223	0xbdd9412f	-0.10608136
224	0xbd236b8e	-0.039897494
225	0x3d0a9e26	0.03384223
226	0x3d9bee2c	0.07613787
227	0xbe1499c1	-0.14511777
228	0xbdc14074	-0.094361216
229	0x3e46ef4f	0.19427226
230	0xbd7eeb98	-0.0622364
231	0x3bbdf002	0.0057964334
232	0x3d3f71c7	0.046739366
233	0x3e27bbb7	0.16380201
234	0x3e5eaec0	0.2174635
235	0xbe932765	-0.28740993
236	0x3da6077d	0.08106897
237	0xbdda1a26	-0.10649519
238	0xbe274697	-0.16335522
239	0x3bcdf49b	0.0062852628
240	0xbe7cb182	-0.24677089
241	0x3d07614c	0.033051774
242	0xbd66dfe8	-0.056365877
243	0x3d9ad645	0.075604
244	0x3e27f8b9	0.16403474
245	0x3ce79dd9	0.02827351
246	0xbc1b14f8	-0.009465449
247	0xbe649162	-0.22321084
248	0xbd7b0dc5	-0.06129243
249	0x3dc295dc	0.0950124
250	0x3c3b8637	0.0114455735
251	0xbe1d8285	-0.1538182
252	0xbc5b8b85	-0.013399963
253	0x3e3b2e46	0.1827937
254	0x3cdcaa5c	0.026936702
255	0x3ca62287	0.020280136

policy.mlp_extractor.policy_net.2.bias f4 [128]
0	0x3cfdca11	0.030980142
1	0xb924cb1e	-0.00015715926
2	0x3dce4cb3	0.10073223
3	0x3ce990c9	0.028511422
4	0x3e3e103a	0.18560877
5	0x3c857efa	0.016295899
6	0x3d866bb5	0.06563512
7	0x3b73a5b3	0.0037177622
8	0xbbd2d4fc	-0.006434081
9	0x3daa2b2c	0.08309016
10	0xb9448a1f	-0.0001874347
11	0x3e11f30b	0.1425287
12	0xbab0e58e	-0.0013496147
13	0xbaafb62a	-0.001340573
14	0x3de36b36	0.11104433
15	0x3e44dd76	0.19225106
16	0x39bf8694	0.00036530627
17	0xbd89b487	-0.06723886
18	0xb99a25ef	-0.00029401432
19	0x3e05a21e	0.13050124
20	0x3e19cabe	0.15018746
21	0x3d5dd9bd	0.05416273
22	0xb97567f7	-0.0002340375
23	0xbb11db25	-0.0022255864
24	0xbc9f0f4d	-0.019416476
25	0x3d90e995	0.07075802
26	0x3dafa6ef	0.08576762
27	0xbd3d88a3	-0.046272885
28	0xbb7f5d41	-0.0038965496
29	0xbd0861d7	-0.033296432
30	0x3dd8b900	0.10582161
31	0x3d0a6c41	0.033794645
32	0x3d873452	0.06601776
33	0x3de2c8a2	0.11073424
34	0xbc8ee21b	-0.0174418
35	0xbae29b14	-0.0017288649
36	0x3dad35a5	0.084574975
37	0xbae6fa46	-0.0017622195
38	0x3976a228	0.00023520796
39	0x3d2ed372	0.04268212
40	0x3d820890	0.063492894
41	0x3e279655	0.16365941
42	0xbcf38c96	-0.029730123
43	0x3cd114e6	0.02552266
44	0x3d93af3b	0.07211157
45	0x3d78cd97	0.06074294
46	0x3d5ab109	0.05339149
47	0x3cc459e6	0.023968648
48	0x3e1078e3	0.14108615
49	0x3d501ba4	0.05080761
50	0xbd0675a7	-0.032827046
51	0x3d10a0c8	0.035309583
52	0x3cd4e324	0.025987215
53	0x3e7e79c1	0.24851133
54	0xb94baa6b	-0.00019423074
55	0x3e7ad0c3	0.24493699
56	0x394b5ec2	0.00019394889
57	0x3deadc87	0.114678435
58	0x3d98ab88	0.07454592
59	0x3d069ad6	0.032862507
60	0x3b6bb4bf	0.0035965887
61	0xba16fcc9	-0.0005759714
62	0x3b95707c	0.0045605283
63	0x00000000	0.0
64	0x3d583aa6	0.052790307
65	0x3dbaf5fc	0.09128949
66	0x3e3a3aa1	0.18186428
67	0x3e57b788	0.21066105
68	0xbc57658f	-0.013146772
69	0xb933f119	-0.00017160586
70	0xbb2b30fd	-0.0026121729
71	0x3e12d0e7	0.14337502
72	0xbadad3fd	-0.0016695258
73	0x3ddca875	0.10774318
74	0x3d9d3e4f	0.076779
75	0x3c9237af	0.017848818
76	0xbbb1cd01	-0.0054260497
77	0x39d3962d	0.00040356946
78	0x3b0d2964	0.0021539563
79	0x3d158e06	0.036512397
80	0xbb9cd305	-0.0047858977
81	0x3e2bc853	0.16775636
82	0x3d2f666f	0.042822298
83	0x3e0dae60	0.1383605
84	0x3d2a015b	0.0415052
85	0x3e769f48	0.24084198
86	0x393449fd	0.000171937
87	0xb80c80c6	-3.349853e-05
88	0x37960ea5	1.7888213e-05
89	0x3d95a400	0.07306671
90	0x3dcabfe4	0.098998815
91	0x00000000	0.0
92	0x3ca1a79b	0.01973324
93	0x3d5aa4a7	0.05337968
94	0x3dd2d36e	0.10294233
95	0x3dfa0d5c	0.12209579
96	0x3e11f8e7	0.14255105
97	0xbc042be7	-0.008067108
98	0x3d9eaefd	0.0774822
99	0x3cc9da28	0.024640158
100	0x3d1dd93f	0.03853726
101	0x3d067577	0.032826867
102	0x3e7aae43	0.24480538
103	0x3bfe2227	0.007755536
104	0xbb371dad	-0.0027941272
105	0x3c040a50	0.008059099
106	0x3decc636	0.11561243
107	0xbbf99119	-0.007616174
108	0x3d560267	0.052248385
109	0xbc46a8e8	-0.012125231
110	0x3d09e627	0.033666756
111	0x3d66dcb2	0.056362815
112	0x3e32fbe3	0.174789
113	0x39e8b764	0.00044387125
114	0xbc554c54	-0.013018686
115	0xbc410e0a	-0.011783132
116	0x3d8e9beb	0.06963333
117	0x3c3fe718	0.011712812
118	0x3e1201b1	0.14258458
119	0xbc2f9364	-0.010716293
120	0x3c9fda4f	0.019513277
121	0x3d9b9d0e	0.07598315
122	0x3b09e4a9	0.0021040833
123	0x3ca66203	0.020310408
124	0x00000000	0.0
125	0x3cc66644	0.024218686
126	0x3d216740	0.039405107
127	0x3c1e05c6	0.009644931

policy.mlp_extractor.policy_net.4.weight f4 [64, 128]
0	0xbd7e4c29	-0.06208435
1	0x3d037361	0.032092456
2	0x3cd1426f	0.025544373
3	0x3eaab99c	0.33344734
4	0x3e51a332	0.2047241
5	0x3ea2928a	0.31752425
6	0x3cb2c2de	0.021821436
7	0xbd76ddf8	-0.06027028
8	0xbbe833a6	-0.007086235
9	0x3e3c6772	0.18398836
10	0x3dc73d00	0.09728432
11	0xbde48fb8	-0.11160225
12	0xbc301b22	-0.0107486565
13	0x3e5d51ed	0.21613283
14	0x3d541d5e	0.05178582
15	0x3e4b149e	0.19832084
16	0xbd6e2b41	-0.05814672
17	0xbe449f53	-0.19201402
18	0xbc2a2559	-0.010384881
19	0x3e8a8ef8	0.27062201
20	0xbdd6351d	-0.10459349
21	0x3ed7fe5b	0.42186245
22	0x3e841d79	0.25803736
23	0x3cc7bc64	0.024381824
24	0xbe162a23	-0.14664511
25	0x3e5bda0a	0.21469894
26	0x3e916bdf	0.28402612
27	0xbda74d00	-0.081689835
28	0x3d94be9a	0.07262917
29	0xbbcb319b	-0.006200982
30	0x3b53dd1e	0.003232784
31	0x3e54e9f3	0.2079237
32	0x3d06ad7d	0.032880295
33	0xbd957c7f	-0.07299136
34	0xbddaf67d	-0.10691545
35	0xbded3c6a	-0.11583789
36	0x3bd094f4	0.006365413
37	0xbdcec099	-0.10095329
38	0x3ea84b75	0.3287007
39	0x3e65c599	0.22438659
40	0x3e278e47	0.16362868
41	0xbdc74ca2	-0.097314134
42	0x3e2fbcd7	0.1716188
43	0xbe1e6226	-0.15467128
44	0x3d7772a4	0.060412064
45	0x3e7d1beb	0.24717681
46	0xbe10b843	-0.1413279
47	0x3e2d1639	0.16903009
48	0x3e223298	0.15839612
49	0xbe1fe4c8	-0.15614617
50	0xbe2403c6	-0.16017064
51	0x3d81081d	0.063003756
52	0xbdda7640	-0.10667086
53	0xbd59c61a	-0.05316744
54	0x3d2f7be0	0.042842746
55	0x3eba83db	0.36428723
56	0x3dd88a59	0.10573263
57	0xbe267548	-0.16255677
58	0x3e11523f	0.1419153
59	0xbdd08cdb	-0.10183116
60	0x3e3d4152	0.18481949
61	0xbe429374	-0.19001561
62	0xbcf140aa	-0.02944978
63	0x3e26e59e	0.1629853
64	0xbe3dd690	-0.1853888
65	0x3c653dd1	0.013991789
66	0x3ec9c962	0.39411455
67	0x3e4c61bc	0.19959158
68	0x3d7527ca	0.0598524
69	0xbdd2bf45	-0.10290388
70	0x3badfb76	0.0053095175
71	0x3cb9ebb9	0.02269541
72	0xbc2b3d38	-0.010451607
73	0x3d3007f1	0.042976324
74	0xbd4b68ab	-0.049660366
75	0xbe03cfdf	-0.12872265
76	0x3e672767	0.22573625
77	0xbd3a2d4f	-0.045453366
78	0x3e2c03b1	0.16798283
79	0x3dc71260	0.09720302
80	0x3bd3f3a0	0.0064682513
81	0x3dedc191	0.116091855
82	0xbe012d16	-0.12614855
83	0x3e352fb4	0.17693979
84	0x3e47b7f9	0.19503774
85	0x3d9b8258	0.075932205
86	0xbd773a34	-0.06035824
87	0x3c6ea4c1	0.014565648
88	0xbe4dd7a3	-0.2010179
89	0xbd36c424	-0.044620648
90	0x3e233071	0.15936448
91	0xbdcb66b6	-0.099317
92	0x3d0165a6	0.03159108
93	0xbe112e05	-0.14177711
94	0x3c8e09a9	0.01733859
95	0x3e2b780f	0.16745017
96	0x3d31afca	0.043380536
97	0x3d132b75	0.035930116
98	0xbde75937	-0.11296313
99	0x3d97bd92	0.074092045
100	0x3dc47989	0.095934935
101	0x3e6be3f4	0.23036176
102	0x3cde42e0	0.027131498
103	0xbd0fac2e	-0.035076313
104	0xbe29c29f	-0.16578148
105	0x3c88c5d2	0.01669589
106	0x3d9424bf	0.07233571
107	0xbe53767b	-0.20650665
108	0x3defc233	0.117069624
109	0xbe5aa2dd	-0.2135119
110	0x3e2c1809	0.16806044
111	0xbda49e71	-0.08038033
112	0xbe5a88c8	-0.2134124
113	0x3d3fca33	0.04682369
114	0xbce1e105	-0.027573118
115	0x3c85c488	0.016329065
116	0x3de1f5c3	0.110332035
117	0x3d9193ab	0.071082436
118	0xbd011f7c	-0.031524166
119	0xbde8bb0f	-0.113638036
120	0x3d8ddf04	0.069273025
121	0x3e07b789	0.13253607
122	0x3cce2348	0.025163308
123	0x3e42413b	0.18970196
124	0xbd15acb1	-0.036541644
125	0x3ddf8c25	0.10915402
126	0x3e067468	0.13130343
127	0xbd7ba245	-0.06143405
128	0x3e639480	0.22224617
129	0xbe948ef7	-0.29015324
130	0x3d4fcbf5	0.050731618
131	0x3dc85e7d	0.09783647
132	0xbdd96a0e	-0.106159315
133	0x3e46d79f	0.1941819
134	0x3d312462	0.043247588
135	0x3dde1c4d	0.10845242
136	0x3dfff65c	0.12498161
137	0x3d891d74	0.06695071
138	0xbcaf547b	-0.021402588
139	0xbd7c4f3d	-0.061599005
140	0x3d6864da	0.056736805
141	0xbd217bd2	-0.039424725
142	0xbd79dc07	-0.06100085
143	0x3e4dda0e	0.20102713
144	0x3e224f21	0.15850498
145	0xbd0cead5	-0.03440364
146	0xbcf396f5	-0.029735068
147	0x3de21198	0.11038512
148	0x3cbfbd54	0.023405708
149	0xbdca2a55	-0.098713554
150	0xbd32da16	-0.043665014
151	0x3dbb30c9	0.091401644
152	0xbd98421f	-0.074344866
153	0x3e2e87de	0.17044017
154	0x3da3f792	0.08006205
155	0x3e229a4f	0.15879177
156	0x3d75fdba	0.060056426
157	0xbdd1eb61	-0.10249973
158	0x3bd06245	0.006359371
159	0x3e0951b7	0.13410078
160	0xbe7f723a	-0.24945918
161	0x3ea7e15d	0.32789126
162	0x3e8575f3	0.2606655
163	0x3ba2a924	0.004964011
164	0x3d4044a8	0.046940476
165	0xbc851c80	-0.016248941
166	0xbd34d385	-0.044147033
167	0x3d851eec	0.065000385
168	0x3dc6362c	0.09678301
169	0x3d03b3f4	0.03215404
170	0xb900f571	-0.00012298465
171	0xbdc6e15a	-0.09710951
172	0x3e4a41cc	0.19751662
173	0x3ebcaba7	0.3684971
174	0xbe28e75a	-0.16494504
175	0xbe408d0f	-0.1880381
176	0x3e1014d6	0.14070448
177	0xbbc792ac	-0.0060904827
178	0x3da87abf	0.08226537
179	0xbe748ebd	-0.23882575
180	0xbdef1862	-0.116745725
181	0x3e8ad6ed	0.271171
182	0x3d1c5952	0.03817112
183	0x3ec34a33	0.38142547
184	0xba214ab7	-0.0006152796
185	0x3e0f9a8b	0.14023797
186	0xbcfb0327	-0.030641152
187	0x3e21d32a	0.15803209
188	0x3e2d47dc	0.16921943
189	0x3d70f9a0	0.05883181
190	0x3dc9ea51	0.098591454
191	0xbc8c4882	-0.017124418
192	0x3de5ecb1	0.11226786
193	0xbdf28551	-0.11841834
194	0x3d304242	0.04303194
195	0xbc165b46	-0.009177035
196	0x3e0df480	0.138628
197	0x3dc12e68	0.094326794
198	0x3d102496	0.03519114
199	0x3d8c99f1	0.068652995
200	0x3bbc9fda	0.0057563605
201	0x3dbf5e6f	0.09344184
202	0xbe88bb7b	-0.26705536
203	0xbe674893	-0.22586279
204	0xbde32916	-0.11091821
205	0x3bd4341c	0.0064759385
206	0x3e0c7f4e	0.13720438
207	0x3cc16136	0.023605924
208	0x3e1b8c4b	0.15190236
209	0xbd0a64f9	-0.0337877
210	0xbd8b38d6	-0.0679795
211	0xbe588c80	-0.21147346
212	0x3cbe91e4	0.023262925
213	0x3db800d2	0.089845315
214	0xbda5bec6	-0.08093028
215	0xbd2377c7	-0.03990915
216	0x3b8bcb38	0.004266169
217	0xbd2e2ef0	-0.04252523
218	0x3df4d1de	0.119540915
219	0x3dc8883a	0.09791608
220	0xbdd39ecf	-0.10333025
221	0xbe4b6a4b	-0.19864766
222	0xbe11a233	-0.1422203
223	0x3e5aa88f	0.21353363
224	0xbe41026b	-0.18848579
225	0x3e9eca68	0.310138
226	0xbde7051d	-0.11280272
227	0x3da17160	0.07882953
228	0xbd8d0395	-0.06885449
229	0xbd9bf90e	-0.07615863
230	0xbccac02c	-0.024749838
231	0xbe060be1	-0.13090469
232	0xbce79188	-0.028267637
233	0xbd15fa92	-0.036615916
234	0xbdd85af4	-0.10564223
235	0xbc2ee6e2	-0.010675164
236	0x3e082b7d	0.1329784
237	0xbd3632f6	-0.044482194
238	0xbc20bd5d	-0.009810773
239	0x3e18201c	0.14855999
240	0xbe2cb4c5	-0.16865833
241	0xbd03472e	-0.032050304
242	0xbe8e725b	-0.2782162
243	0xbd62f67f	-0.05541086
244	0x3db9ce3e	0.09072541
245	0xbddcd75c	-0.10783264
246	0xbd8cec59	-0.06881017
247	0x3e3500cd	0.17676087
248	0x3d90dbdf	0.07073187
249	0xbc6767c5	-0.014123862
250	0xbe5742b3	-0.21021537
251	0x3e92548f	0.28580138
252	0x3dcc2387	0.09967714
253	0xbda9a8c8	-0.082841456
254	0x3e1df5ef	0.15425847
255	0x3d80497c	0.06264016

policy.mlp_extractor.policy_net.4.bias f4 [64]
0	0x3db6a4e4	0.08918169
1	0x3cc06eae	0.023490276
2	0x3c55b219	0.01304295
3	0x3cae62b1	0.021287294
4	0x3a254d47	0.0006305766
5	0x3c674bb2	0.014117168
6	0x3d3aa51f	0.045567628
7	0x3da678fe	0.08128546
8	0x3919185d	0.00014600293
9	0x3cb92638	0.022601232
10	0x3e184f42	0.14873984
11	0x39307505	0.00016828261
12	0x3d70cf6b	0.05879156
13	0xb884ce2d	-6.332654e-05
14	0x3db89c00	0.0901413
15	0x3db766b4	0.08955136
16	0x00000000	0.0
17	0x3c5c0a8b	0.013430248
18	0x3de97078	0.11398405
19	0x3db4ec72	0.08834161
20	0x3ad0565a	0.0015894875
21	0x3d4e532e	0.050372295
22	0x3e01c3c0	0.12672329
23	0x3c3b2e6f	0.011424645
24	0x371cf455	9.355213e-06
25	0x3e11f33d	0.14252944
26	0x389e7484	7.55573e-05
27	0x3d34e966	0.0441679
28	0x3d341af5	0.04397102
29	0x00000000	0.0
30	0x3da49da7	0.08037882
31	0x00000000	0.0
32	0x3d438907	0.0477381
33	0x3d87b1d6	0.066257164
34	0x3d657d77	0.056027856
35	0x3dae8e59	0.085232444
36	0xb7b1bdfb	-2.118851e-05
37	0x37760e50	1.4666075e-05
38	0x3d646677	0.05576178
39	0xb803806e	-3.1352443e-05
40	0x3c34f096	0.011043688
41	0xb6a41dfe	-4.8910724e-06
42	0x3dbdf3f1	0.09275044
43	0x3d920322	0.07129504
44	0x3de4fd1b	0.111810885
45	0x3db843f2	0.089973345
46	0x3dbd21eb	0.09234985
47	0x3d12ffc9	0.035888467
48	0x3dbae4a3	0.0912564
49	0x3c6be5ed	0.01439808
50	0x3de92e38	0.11385769
51	0x3d190f1a	0.037367918
52	0x3d10fd46	0.03539779
53	0x3dab6649	0.08369119
54	0x3e0dba1b	0.13840525
55	0x39b6d108	0.00034869486
56	0x3e1922ab	0.14954631
57	0x3cb6480c	0.022251152
58	0x3dd3c65a	0.10340567
59	0x3d3acd2f	0.045605835
60	0x3da4aaef	0.080404155
61	0x3de1ebab	0.11031278
62	0x3dba78c7	0.09105068
63	0x3d48b84d	0.049003888

policy.action_net.weight f4 [3, 64]
0	0x3eaa623a	0.33278066
1	0x3e53f8f5	0.20700438
2	0x3c48f3e0	0.012265176
3	0x3e44096d	0.1914422
4	0x3bbe38c7	0.005805108
5	0x3dbc164b	0.091839395
6	0x3e5c9674	0.21541768
7	0x3e932d36	0.2874543
8	0x3bb06937	0.0053836363
9	0x3de47b8c	0.11156377
10	0x3e9ea0bb	0.30982003
11	0x3b56f9bf	0.003280267
12	0x3e98671c	0.29766166
13	0x39fbc8a5	0.00048023943
14	0x3ecbd9a0	0.39814472
15	0x3ea7cab0	0.32771826
16	0xb9d88f9c	-0.00041305728
17	0x3cc1e1f3	0.023667311
18	0x3ec3cc68	0.38241887
19	0x3eb10dff	0.3458099
20	0x3ba11471	0.004915767
21	0x3e43ba9b	0.19114153
22	0x3e8b24a4	0.27176392
23	0x3e3e045e	0.18556353
24	0xba8c7b61	-0.0010717922
25	0x3edd179a	0.4318207
26	0x3897698b	7.2199e-05
27	0x3e8fb689	0.2806895
28	0x3def1cb2	0.11675395
29	0x3a9e4dfb	0.0012077683
30	0x3e58647e	0.21132085
31	0xbb268237	-0.0025407204
32	0x3e483a72	0.19553545
33	0x3e8498e7	0.25897905
34	0x3e74f55a	0.23921719
35	0x3eab6b5c	0.33480346
36	0x3b3aa8f4	0.0028482052
37	0xbaeb866e	-0.001796914
38	0x3e5bdfaf	0.21472047
39	0xb96282b5	-0.00021601732
40	0x3bc7035c	0.0060733985
41	0xb9968847	-0.00028711764
42	0x3e541050	0.20709348
43	0x3e77235e	0.24134585
44	0x3eba10ae	0.3634085
45	0x3eaa37f7	0.33245823
46	0x3ebbd003	0.36682138
47	0x3e590a3f	0.21195315
48	0x3ead3ae7	0.33834
49	0x3d0558a7	0.03255525
50	0x3e6c274a	0.23061863
51	0x3e3c83e6	0.1840969
52	0x3e0529ce	0.13004228
53	0x3e6fae16	0.23406252
54	0x3ec5210a	0.3850177
55	0x3bc28b04	0.005936982
56	0x3ec2a7cf	0.38018653
57	0x3da25d5b	0.079279624
58	0x3e72796f	0.23679136
59	0x3e256e69	0.161554
60	0x3eac2bb3	0.3362709
61	0x3ec4da8b	0.38447985
62	0x3ec93ea9	0.39305618
63	0x3db5a95b	0.088701926
64	0x3efe922c	0.49720895
65	0x3eba2fc9	0.36364582
66	0xbdb11881	-0.08647252
67	0x3ed42f71	0.41442445
68	0x3bb6b9e5	0.0055763596
69	0x3dae6b31	0.08516539
70	0x3e8745ed	0.26420537
71	0x3f0726af	0.527934
72	0xba9cc40f	-0.0011960285
73	0x3e68b000	0.22723389
74	0xbe748ddc	-0.2388224
75	0xbaef32c6	-0.0018249385
76	0x3e8d02cc	0.27541196
77	0x3aad7cab	0.0013236006
78	0x3ec4df24	0.38451493
79	0x3d11565d	0.035482753
80	0xbacb2bd2	-0.001550073
81	0xbd39b78a	-0.045341052
82	0x3d34e3c5	0.04416253
83	0x3e4aef47	0.1981784
84	0xbc190f6c	-0.009342056
85	0x3ef57782	0.4794274
86	0xbeb18531	-0.3467193
87	0x3eb87954	0.36030066
88	0x3b0c702c	0.0021429164
89	0x3e60d576	0.21956429
90	0xbad74382	-0.0016423317
91	0x3ee04b24	0.43807328
92	0x3e69605d	0.22790666
93	0x3aac0ab8	0.0013125753
94	0xbe3eb7a5	-0.18624742
95	0xba0e7a3d	-0.0005435085
96	0x3e1009b2	0.14066198
97	0xbdb18347	-0.08667617
98	0xbe039388	-0.12849247
99	0x3ef3e2b8	0.4763391
100	0xbadbdad1	-0.0016773586
101	0xbadcaede	-0.0016836782
102	0x3ecfb875	0.40570417
103	0xbac8cce1	-0.0015319848
104	0xbcdc0152	-0.026856098
105	0x37dfa805	2.6661912e-05
106	0xbe952f8b	-0.29137835
107	0xbdd13175	-0.10214511
108	0x3eafa22b	0.34303412
109	0x3eb1a131	0.34693292
110	0x3ea8163e	0.3282947
111	0x3f02081b	0.5079362
112	0x3e337f8f	0.17529128
113	0x3d9f6f01	0.07784844
114	0xbe6e18e8	-0.23251688
115	0x3ea202a9	0.31642655
116	0x3e624c5e	0.22099444
117	0x3e67ec3f	0.22648714
118	0x3e896a2d	0.26838818
119	0xb72cea22	-1.0306512e-05
120	0xbe9194b9	-0.2843378
121	0x3e3246c7	0.17409812
122	0xbe7b890c	-0.24563998
123	0x3ecc0eba	0.39854985
124	0x3ec267a1	0.37969688
125	0x3d721cbc	0.059109434
126	0x3ee86d0d	0.453957
127	0xbe7406c7	-0.2383071
128	0x3d816a87	0.063191466
129	0x3e63c3c4	0.22242647
130	0xbbebd416	-0.0071969135
131	0x3eb123a9	0.3459752
132	0xba944d08	-0.0011314461
133	0x3e37ff50	0.17968488
134	0x3b01cae6	0.0019804775
135	0x3da93a47	0.08263069
136	0xb91c79e9	-0.00014922734
137	0x3e216248	0.15760148
138	0xbf219cb6	-0.63129747
139	0xb8f16e4c	-0.0001151232
140	0x3d144413	0.036197733
141	0xba4f8ec2	-0.0007917696
142	0x3d19e386	0.0375705
143	0xbe61d3c0	-0.22053432
144	0xbb1283dc	-0.0022356426
145	0x3d58a9e6	0.052896403
146	0xbe8b07fa	-0.27154523
147	0xbe03256f	-0.12807249
148	0xbc23632b	-0.009972374
149	0x3e780e7e	0.24224278
150	0xbeeee95c	-0.46662414
151	0x3ea01099	0.31262663
152	0xba6d223b	-0.0009045933
153	0xbeb0779b	-0.34466252
154	0x3ab7efd9	0.0014033272
155	0x3e3396a7	0.17537938
156	0x3d5afa64	0.053461447
157	0x39b49aca	0.00034447602
158	0xbe9cd7a5	-0.30633274
159	0x3a85eba2	0.0010217319
160	0xbe10a104	-0.14123923
161	0xbe50e735	-0.20400698
162	0xbe4ff303	-0.20307545
163	0x3db39f12	0.08770575
164	0x3ac2a683	0.001485065
165	0x3a0fecb5	0.0005490289
166	0x3dd773e1	0.10520149
167	0x3b3ed29b	0.002911723
168	0x3d491109	0.04908851
169	0xba00a9a8	-0.0004908093
170	0xbea7ea05	-0.3279573
171	0xbe600420	-0.21876574
172	0xbe692000	-0.22766113
173	0xbd1256ca	-0.0357273
174	0xbcb001ab	-0.02148517
175	0x3e9cb467	0.30606386
176	0xbe0dc2f5	-0.13843901
177	0x3d669f23	0.05630411
178	0xbed255bc	-0.41081035
179	0x3d8a08c4	0.06739953
180	0xbc1e11ad	-0.009647769
181	0xbe837959	-0.25678518
182	0xbe9faa1f	-0.3118448
183	0xb9acc209	-0.00032950964
184	0xbf24ae1a	-0.6432816
185	0x3df4e315	0.11957375
186	0xbec1f5cc	-0.3788284
187	0x3e7d0503	0.24708943
188	0x3ce60b05	0.028081426
189	0xbe990d3d	-0.29892913
190	0x3d806b66	0.062704846
191	0xbddd2711	-0.10798467

policy.action_net.bias f4 [3]
0	0x3e82c154	0.25538123
1	0x3d5d734d	0.054065038
2	0xbe0439a1	-0.12912609
