models/soccer_rl_ddpg_final.onnx (onnx, 438329 bytes, 8 tensors)

actor.mu.0.weight f4 [256, 12]
0.008786922 0.5497596 -0.23566079 0.5384987 0.2550964 0.3176907 -0.122258455 0.15542576
-0.13082653 0.034555405 -0.1181101 -0.25354823 0.22031039 0.1692478 -0.11524337 -0.0012857991
-0.14374904 -0.18916385 0.16294193 0.10794288 0.020147353 -0.1692789 -0.032345135 -0.11967969
-0.36367902 0.05287668 0.08982978 0.065782495 -0.10326234 0.031373255 -0.036264926 0.1534626
-0.6386763 0.0070033628 -0.07073445 -0.049520858 -0.18618953 0.22444065 0.17091076 0.32501096
-0.23549286 0.1720283 0.039387465 -0.1914856 -0.40391722 -0.028280983 -0.21586193 -0.13858064
0.03262133 0.19168922 -0.20392136 0.9099529 0.020696077 0.057780348 -0.032485694 -0.19130316
0.09267086 -0.036327127 0.15090561 0.17797737 0.14212736 0.10639389 0.24906446 -0.08117695
-0.2623737 0.25876302 -0.06419484 0.7811848 0.3147496 0.14727971 -0.12935755 -0.08285439
-0.007548842 -0.006332842 -0.35324195 0.41421312 0.047424894 0.28645936 0.25089487 0.46081147
0.29587767 0.07246004 0.14931849 -0.14826898 -0.19442862 -0.14532797 0.3426108 0.17394488
0.22880402 -0.14140043 -0.0063695502 -0.1519858 0.6611058 0.096147686 -0.095989615 0.017236723
-0.08499402 0.31708732 0.23848684 -0.32375884 -0.039619412 -0.13494572 -0.034508634 -0.618891
0.49095643 0.19115743 -0.060019813 -0.093101025 0.33364785 -0.22981307 0.33168224 0.6673739
-0.45752403 -0.011530448 -0.025608858 -0.043550007 -0.05108426 0.16709696 -0.010578408 0.211976
0.2206655 0.04936728 0.10926369 0.38028643 -0.051857054 0.119597696 0.21362196 -0.12576473
0.998116 -0.25811672 -0.25662675 -0.11412204 -0.008530991 0.29525882 0.34822962 -0.69248027
-0.2709525 -0.09640373 -0.18597172 -0.9487752 -0.02157291 -0.1391835 -0.19889374 -0.1749505
0.02290528 -0.19599432 0.19109449 -0.10732023 0.04285462 -0.4302564 0.21887968 0.33143166
-0.54426587 0.060013656 -0.17224643 -0.012238367 0.28389227 0.27497032 -0.28135815 0.24872157
0.12399637 -0.17586397 0.101683624 0.029507017 0.051635068 -0.037513874 -0.17039059 -0.059360728
0.0105829835 -0.1325258 -0.051108763 0.22546005 -0.23776332 -0.25903514 0.18977442 -0.26826116
0.070527405 0.030925542 -0.25946367 0.065205485 0.07394111 -0.021260887 -0.10907069 0.2726426
0.0017542541 -0.20947734 0.082366586 0.15046471 -0.16551009 -0.1330455 -0.11388937 0.034107238
-0.19334383 0.047317572 -0.29724246 0.23091857 -0.30266073 -0.39299303 0.59982103 -0.3604144
-0.14360778 0.07371714 0.25716907 -0.14932412 -0.091041155 -0.12012616 0.163258 -0.39675978
-0.40366364 -0.06338187 0.16612306 0.004710613 0.22181481 -0.24596873 0.1055221 0.017819587
0.21084385 -0.23636504 -0.2562799 -0.13826892 0.23683871 0.34481287 0.14791837 -0.09860203
0.3569384 -0.43316168 -0.12695676 0.0071789445 0.048854213 0.3076043 -0.020386474 -0.4870313
-0.0667498 0.15497762 0.1172382 -0.10549641 -1.3144231 -0.03759118 -0.1745244 -0.23911496
-0.11744232 0.13185538 0.1996656 -0.007480039 -0.1285873 -0.40725392 -0.037112053 -0.966378
-0.43602335 -0.27014324 0.11629146 -0.21390341 0.22042064 0.27669322 -0.3018914 -0.18450327
00000000: 06f7 0f3c 0cbd 0c3f 1051 71be 0ddb 093f
00000010: ff9b 823e 5ba8 a23e a462 fabd ee27 1f3e
00000020: 64f7 05be f889 0d3d b5e3 f1bd 13d1 81be
00000030: 0c99 613e 4c4f 2d3e b704 ecbd 4288 a8ba
00000040: f332 13be 2bb4 41be 40da 263e 2811 dd3d
00000050: 100c a53c 7357 2dbe 557c 04bd a01a f5bd
00000060: 2334 babe 3895 583d adf8 b73d f9b8 863d
00000070: 357b d3bd 3e81 003d 888a 14bd 4d25 1d3e
00000080: 4a80 23bf 777c e53b 39dd 90bd 62d6 4abd
00000090: 78a8 3ebe c5d3 653e 3b03 2f3e d667 a63e
000000a0: 0a25 71be 3028 303e c054 213d cd14 44be
000000b0: 3dce cebe 85ad e7bc e90a 5dbe 15e8 0dbe
000000c0: f29d 053d 2e4a 443e c3d0 50be acf2 683f
000000d0: d28a a93c 16ab 6c3d b80f 05bd fae4 43be
000000e0: 38ca bd3d c1cb 14bd 0087 1a3e b33f 363e
000000f0: d689 113e 0ae5 d93d c10a 7f3e 1a40 a6bd
00000100: d855 86be 967c 843e 9678 83bd bafb 473f
00000110: dc26 a13e 7ed0 163e 4e76 04be 90af a9bd
00000120: 475c f7bb bb83 cfbb 21dc b4be be13 d43e
00000130: 9b40 423d cdaa 923e 4b75 803e 7bef eb3e
00000140: 477d 973e ee65 943d f2e6 183e d3d3 17be
00000150: 4c18 47be dbd0 14be af6a af3e 9b1e 323e
00000160: 9a4b 6a3e 46cb 10be a9b7 d0bb 2aa2 1bbe
00000170: 3b3e 293f 14e9 c43d 3496 c4bd 0734 8d3c
00000180: 5811 aebd 4559 a23e e535 743e b8c3 a5be
00000190: f747 22bd 362f 0abe ed58 0dbd a46f 1ebf
000001a0: a45e fb3e c6be 433e 56d7 75bd c0ab bebd
000001b0: e4d3 aa3e 1e54 6bbe 41d2 a93e 04d9 2a3f
000001c0: 9740 eabe 34ea 3cbc abc9 d1bc 7e61 32bd
000001d0: bb3d 51bd 771b 2b3e 0f51 2dbc 3d10 593e
000001e0: 23f6 613e 5835 4a3d a4c5 df3d e7b4 c23e
000001f0: 1068 54bd a3ef f43d b7bf 5a3e 78c8 00be
00000200: 8884 7f3f e027 84be 9564 83be d1b8 e9bd
00000210: 92c5 0bbc 2a2c 973e 274b b23e 6346 31bf
00000220: 49ba 8abe 526f c5bd 5f6f 3ebe eee2 72bf
00000230: acb9 b0bc 1f86 0ebe cdaa 4bbe 3926 33be
00000240: dba3 bb3c bcb2 48be 46ae 433e b5ca dbbd
00000250: 5388 2f3d 914a dcbe ff21 603e 69b1 a93e
00000260: 0255 0bbf e1d0 753d 5e61 30be 6f83 48bc
00000270: 545a 913e e9c8 8c3e 2d0e 90be deb0 7e3e
00000280: cff1 fd3d af15 34be 813f d03d b3b8 f13c
00000290: 4b7f 533d 26a8 19bd df7a 2ebe 3c24 73bd
000002a0: 4064 2d3c d8b4 07be 6c57 51bd 00df 663e
000002b0: 3a78 73be 41a0 84be 3a54 423e 8759 89be
000002c0: ac70 903d 9057 fd3c 6cd8 84be 748a 853d
000002d0: 706e 973d 502b aebc 7460 dfbd d097 8b3e
000002e0: 00ef e53a 3a81 56be d0af a83d 6c13 1a3e
000002f0: 7a7b 29be 143d 08be d43e e9bd 08b4 0b3d
00000300: edfb 45be 12d0 413d 2a30 98be eb75 6c3e
00000310: 59f6 9abe 6236 c9be df8d 193f 3c88 b8be
00000320: eb0d 13be 03f9 963d aaab 833e 6ce8 18be
00000330: c973 babd b404 f6bd 1b2d 273e 1924 cbbe
00000340: 00ad cebe 5bce 81bd 2a1c 2a3e 7c5b 9a3b
00000350: 6c23 633e 3adf 7bbe f91b d83d 62fa 913c
00000360: 73e7 573e ad09 72be 1e37 83be 5e96 0dbe
00000370: d985 723e 508b b03e ea77 173e dcef c9bd
00000380: a1c0 b63e 5ec7 ddbe f400 02be 5a3d eb3b
00000390: 5b1b 483d 507e 9d3e 8901 a7bc 2b5c f9be
000003a0: 1fb4 88bd 74b2 1e3e 951a f03d 800e d8bd
000003b0: 043f a8bf 36f9 19bd 86b6 32be 8dda 74be
000003c0: 9985 f0bd 1905 073e 2475 4c3e 1d1b f5bb
000003d0: 64ac 03be 9683 d0be cf02 18bd 8c64 77bf
000003e0: 743e dfbe 3750 8abe 382a ee3d 7f09 5bbe
000003f0: f3b5 613e bcaa 8d3e 8291 9abe 6dee 3cbe

actor.mu.0.bias f4 [256]
0.043979827 -0.11508724 -0.1354477 0.050337095 0.037249126 -0.11195475 -0.12037235 -0.24215321
-0.28026935 -0.025925288 0.22052582 0.16905828 0.111186616 -0.24216986 -0.2741807 -0.011658967
0.01533123 -0.10018208 0.07876558 0.07865402 0.21206287 -0.1300074 0.11180469 -0.27626362
0.13342898 -0.17891905 0.21441871 0.04318416 -0.027273003 -0.023030542 0.15588571 -0.29295355
0.14039175 0.113793485 0.25541824 -0.088597134 -0.15344317 0.13507618 -0.06254501 -0.39965782
0.08239438 -0.37942502 -0.1384664 0.0599805 -0.26135868 -0.015453086 0.08678706 -0.17467268
0.18147634 -0.104834884 -0.32196525 0.035053 -0.40430325 -0.08474012 -0.033222627 -0.21814469
-0.15630423 -0.20757484 0.1730512 0.026172655 -0.2691261 0.051264297 0.073150694 -0.1313368
0.032079447 0.35975677 0.22850281 -0.043994717 0.014604883 -0.13751909 0.04066245 -0.30149037
-0.03446918 0.1509432 -0.13477519 0.014551455 -0.0052878577 -0.13674758 0.038323108 -0.07725809
-0.3048474 0.15247162 0.2024271 0.08917116 -0.19286473 0.06708512 0.05679492 0.28639224
-0.24030058 0.11334449 0.13719901 0.020880533 -0.19641821 -0.036077462 0.25234425 -0.052975494
0.2212232 -0.02191268 -0.27751237 -0.22712341 -0.15081823 0.017251283 -0.16462868 0.2014884
0.0882426 -0.21702208 -0.36362758 -0.17125188 -0.13611361 0.23312323 -0.21383934 -0.026928654
-0.21962452 0.06226266 0.09488792 0.19540222 -0.22189224 -0.2355041 0.13696444 0.023999529
-0.08401684 0.16566533 -0.25926244 0.2475333 0.22422963 -0.09402793 0.22732942 0.18580596
0.07895849 -0.07810077 0.30484387 0.21462873 -0.2927907 0.33212614 -0.079994015 0.24560747
0.009423767 -0.15412918 -0.27793914 -0.07795811 0.03565293 0.2002858 0.1830983 -0.24382639
0.12888792 -0.23753302 -0.25521713 0.124852195 -0.1857273 -0.2868171 -0.11704852 -0.17720188
0.01622789 -0.29971156 -0.16918188 0.27174526 -0.14058611 -0.1638445 -0.1908557 -0.020495584
0.13144971 -0.019114906 0.09464685 0.041566405 -0.06294086 0.021098359 0.13025837 -0.19076934
-0.019618329 0.2141187 0.19968566 -0.044440426 0.044487804 -0.10090481 0.21204881 -0.22346236
0.07437131 -0.057376146 -0.033916578 -0.3166414 0.090905 0.29918876 -0.06814812 -0.25760037
-0.2572923 -0.12306955 0.2649757 -0.045068514 -0.21316265 0.1966102 -0.1810319 0.2420766
-0.2874855 -0.065058835 0.2528977 0.17625022 -0.10154212 -0.3147867 -0.08796062 0.33401844
-0.2733596 -0.13285127 -0.1765764 -0.02207263 0.0888687 -0.12389132 0.1548229 -0.31504953
-0.25492105 -0.05137124 0.007498498 -0.051914375 0.20917699 -0.11449869 0.015455543 0.28971282
-0.0035024742 0.29210386 -0.07594094 0.018599518 0.13303384 -0.26059344 -0.04848953 -0.20701827
-0.37103692 -0.23123641 -0.028316572 0.15437551 -0.2837414 -0.35388258 -0.02013747 -0.31854287
0.20933682 -0.22537318 -0.07108145 -0.06743297 0.02595392 -0.21050096 -0.11573374 -0.22786097
-0.19055395 -0.09906926 0.17034298 -0.109427154 -0.2567019 0.3264322 0.17619221 -0.03178028
-0.050749592 0.08393937 0.14778602 -0.11579982 -0.23485401 0.15119508 -0.14635494 0.22346109
00000000: 3124 343d dcb2 ebbd cdb2 0abe 452e 4e3d
00000010: 8a92 183d 8848 e5bd c785 f6bd 03f7 77be
00000020: 777f 8fbe 4561 d4bc 85d1 613e 9d1d 2d3e
00000030: cfb5 e33d 60fb 77be 6a61 8cbe 4005 3fbc
00000040: d72f 7b3c 432c cdbd d94f a13d 5c15 a13d
00000050: 0227 593e a920 05be dbf9 e43d 6d72 8dbe
00000060: 9ba1 083e 8e36 37be 9490 5b3e e0e1 303d
00000070: a26b dfbc 8caa bcbc 81a0 1f3e 02fe 95be
00000080: dbc2 0f3e 8f0c e93d 2ec6 823e 6a72 b5bd
00000090: 3520 1dbe 6951 0a3e 9917 80bd f39f ccbe
000000a0: 62be a83d ff43 c2be 23ca 0dbe 1dae 753d
000000b0: ced0 85be f12e 7dbc 6abd b13d 65dd 32be
000000c0: efd4 393e acb3 d6bd a1d8 a4be bc93 0f3d
000000d0: d600 cfbe 3a8c adbd 7314 08bd 5261 5fbe
000000e0: 370e 20be 808e 54be 5534 313e 0968 d63c
000000f0: e5ca 89be 83fa 513d 08d0 953d 277d 06be
00000100: bd65 033d 0a32 b83e a4fc 693e ce33 34bd
00000110: 5249 6f3c ced1 0cbe ab8d 263d f25c 9abe
00000120: 8e2f 0dbd db90 1a3e 8202 0abe 3a69 6e3c
00000130: c445 adbb 8f07 0cbe b1f8 1c3d 7d39 9ebd
00000140: f514 9cbe 8521 1c3e 0d49 4f3e 5e9f b63d
00000150: 557e 45be ec63 893d caa1 683d 01a2 923e
00000160: 5b11 76be 2821 e83d e67d 0c3e a70d ab3c
00000170: db21 49be f6c5 13bd 4433 813e d5fc 58bd
00000180: 5688 623e 3882 b3bc 1a16 8ebe 0a93 68be
00000190: 1870 1abe 9052 8d3c 6c94 28be fa52 4e3e
000001a0: 89b8 b43d 093b 5ebe 652d babe a75c 2fbe
000001b0: 5e61 0bbe dbb7 6e3e b3f8 5abe 7b99 dcbc
000001c0: 40e5 60be 2207 7f3d 9954 c23d 8517 483e
000001d0: b837 63be fd27 71be 6840 0c3e a99a c43c
000001e0: 0511 acbd 2ca4 293e 0cbe 84be 5f79 7d3e
000001f0: 749c 653e b791 c0bd 0bc9 683e eb43 3e3e
00000200: fdb4 a13d 4cf3 9fbd 7f14 9c3e a2c7 5b3e
00000210: aae8 95be 700c aa3e e7d3 a3bd 8680 7b3e
00000220: 2566 1a3c 0ad4 1dbe 0a4e 8ebe 80a8 9fbd
00000230: cf08 123d b917 4d3e 1f7e 3b3e a0ad 79be
00000240: 32fb 033e db3b 73be d2ab 82be 82b2 ff3d
00000250: 4c2f 3ebe b1d9 92be 22b7 efbd 6974 35be
00000260: 5af0 843c cb73 99be 043e 2dbe 3222 8b3e
00000270: cef5 0fbe dac6 27be ad6f 43be 5be6 a7bc
00000280: c19a 063e dd96 9cbc 35d6 c13d 8941 2a3d
00000290: 23e7 80bd 77d6 ac3c 7362 053e 0a59 43be
000002a0: 9eb6 a0bc ef41 5b3e 667a 4c3e 2a07 36bd
000002b0: d838 363d 2ea7 cebd 5323 593e 51d3 64be
000002c0: fc4f 983d 4003 6bbd 1cec 0abd d21e a2be
000002d0: 672c ba3d 452f 993e 3e91 8bbd 32e4 83be
000002e0: d1bb 83be e30b fcbd e5aa 873e c399 38bd
000002f0: 4f47 5abe 2f54 493e 6d60 39be eee2 773e
00000300: 4d31 93be 913d 85bd cf7b 813e f07a 343e
00000310: 51f5 cfbd b92b a1be b324 b4bd 7704 ab3e
00000320: caf5 8bbe 2a0a 08be 72d0 34be a9d1 b4bc
00000330: cb00 b63d bbba fdbd e589 1e3e 2c4e a1be
00000340: 0385 82be a66a 52bd f6b5 f53b 2ba4 54bd
00000350: 7e32 563e 4a7e eabd 3f39 7d3c 3d55 943e
00000360: c489 65bb a38e 953e ec86 9bbd 045e 983c
00000370: 063a 083e 816c 85be f59c 46bd 99fc 53be
00000380: 8df8 bdbe 3dc9 6cbe 28f8 e7bc 9d14 1e3e
00000390: 8e46 91be 1930 b5be 56f7 a4bc 0d18 a3be
000003a0: 645c 563e 3ac8 66be 2793 91bd 4c1a 8abd
000003b0: 519d d43c 908d 57be d005 edbd 6354 69be
000003c0: 9320 43be d3e4 cabd 646e 2e3e 581b e0bd
000003d0: 6e6e 83be 1f22 a73e bb6b 343e 0a2c 02bd
000003e0: cede 4fbd 68e8 ab3d 3855 173e 7528 edbd
000003f0: 927d 70be e2d2 1a3e 12de 15be fcd2 643e

actor.mu.2.weight f4 [256, 256]
-0.03750566 -0.011126965 0.12980509 0.07247656 -0.024578407 0.027518597 0.011851354 -0.12203674
0.033770986 -0.23734052 -0.23436469 0.0010680062 0.03083697 0.03301695 -0.0034948215 0.048902348
-0.091166906 0.051317908 0.14483567 0.06649478 0.12396721 -0.26224846 0.04466339 0.056192756
-0.086377904 0.14915553 0.19678743 -0.13289726 -0.1836005 -0.13985176 -0.2157535 0.081424974
0.1096709 0.13758983 -0.02317387 -0.28531685 -0.03868339 0.072285 -0.11278755 0.0011849684
-0.044580273 -0.13779609 0.1549901 -0.09990309 -0.0141125005 -0.014480044 0.08476367 0.049578592
0.094672754 -0.10331839 0.1230615 0.26374274 -0.22683161 -0.16641875 -0.23131998 -0.007632123
0.2180836 -0.02027506 -0.18933393 -0.16665137 0.15667553 -0.157014 0.014437543 0.021080354
0.037427615 -0.16684781 0.0828003 -0.16407867 -0.13814622 -0.4950465 0.13236962 -0.08652064
-0.17458521 0.014643803 0.10102823 0.16064844 0.037125375 -0.101834774 -0.4449475 -0.18640742
0.028719999 0.13023846 0.021870466 0.09584523 -0.059014972 -0.119907886 -0.08991192 0.14098558
0.01326843 -0.066035844 0.1133512 -0.16879354 -0.08639614 -0.10810802 -0.028242111 0.018226517
0.10620198 0.23700802 0.690702 0.02777341 -0.031289056 -0.0525223 0.16203478 -0.08837875
0.09310216 0.23295164 -0.6206523 0.03824884 -0.08772356 0.11111269 -0.0037995342 0.22905855
-0.03701645 -0.0951726 0.14362168 -0.02878585 -0.20388663 -0.20022683 0.007550718 0.16837521
0.16105129 0.04597284 0.11261638 0.022410795 0.00085030764 0.24818183 0.048003644 -0.048177794
-0.07653818 0.0062565356 -0.28180683 0.095981054 0.024999576 -0.12184239 -0.090861976 0.06774354
-0.060534485 0.05055339 -0.12747993 -0.16453579 -0.088982314 0.05857848 0.03635705 -0.0009359914
-0.16063944 -0.32660207 -0.50548387 0.08721347 -0.18494391 0.011343343 -0.10707347 -0.118006445
-0.041712854 0.3598697 -0.49386215 -0.07167511 -0.18504755 0.34386712 -0.21431066 -0.047173653
0.21775427 -0.1358837 -0.15333909 -0.30352464 0.13139212 -0.124723464 0.017584955 -0.41795745
0.07854854 0.05717285 0.12060454 0.106083654 0.07357815 -0.025444016 -0.11419234 -0.4561939
0.0076517602 -0.115454264 0.41700214 0.04386481 0.10502537 -0.058053434 0.0019318109 0.3209606
-0.20220727 0.1418494 -0.0912623 0.060448833 -0.050810248 0.31141168 0.041368622 -0.09039426
0.006323248 -0.0006529103 -0.12631904 -0.036681052 0.2415742 -0.3946817 -0.31232163 -0.19886802
0.0853543 0.008896727 -0.13424665 -0.06859582 0.08403337 -0.05343712 -0.08491004 -0.040524922
-0.26267576 0.090430275 0.10179878 0.012492631 0.06827795 0.37317124 -0.34928146 -0.035193007
0.05463747 0.052544057 0.10304745 -0.12876496 0.012077936 0.08955923 -0.13530423 -0.0093657
-0.5752523 0.12936486 -0.24247125 -0.045613486 -0.024764165 0.07122371 0.07962007 -0.0051956424
0.12964854 0.04883725 -0.119060464 0.5739709 0.26293245 0.115632616 -0.3577158 -0.0066012368
0.1417153 -0.57513076 -0.1141861 -0.32803866 0.036398195 -0.14542757 -0.3957251 -0.06239754
-0.06957931 0.021209162 0.16890353 0.036947507 0.063976035 0.16235782 -0.10836993 -0.012154542
00000000: 899f 19bd e04d 36bc a0eb 043e 976e 943d
00000010: a858 c9bc ae6e e13c 2e2c 423c 66ee f9bd
00000020: 7253 0a3d 6509 73be 4cfd 6fbe 57fc 8b3a
00000030: d09d fc3c c83c 073d 6009 65bb d44d 483d
00000040: b7b5 babd ba32 523d cd4f 143e 6a2e 883d
00000050: 85e2 fd3d 6e45 86be f5f0 363d 602a 663d
00000060: e6e6 b0bd 3abc 183e a582 493e 3816 08be
00000070: c501 3cbe 4d35 0fbe 7cee 5cbe 23c2 a63d
00000080: 239b e03d 59e4 0c3e 21d7 bdbc 0d15 92be
00000090: 7972 1ebd 280a 943d 29fd e6bd f150 9b3a
000000a0: ce99 36bd 6b1a 0dbe bab5 1e3e fe99 ccbd
000000b0: 1e38 67bc b53d 6dbc 9398 ad3d ec12 4b3d
000000c0: cae3 c13d 9898 d3bd ab07 fc3d 4a09 873e
000000d0: 8c46 68be ad69 2abe 25df 6cbe e316 fabb
000000e0: 4f51 5f3e e217 a6bc c1e0 41be a8a6 2abe
000000f0: 8d6f 203e 47c8 20be 728b 6c3c b5b0 ac3c
00000100: b34d 193d 27da 2abe 3493 a93d 3d04 28be
00000110: 3476 0dbe bc76 fdbe e78b 073e bc31 b1bd
00000120: 77c6 32be 90ec 6f3c e3e7 ce3d 0681 243e
00000130: c710 183d c08e d0bd 29d0 e3be 96e1 3ebe
00000140: 3446 eb3c 3b5d 053e b129 b33c 814a c43d
00000150: afb9 71bd 4492 f5bd be23 b8bd 865e 103e
00000160: d463 593c cd3d 87bd ad24 e83d 37d8 2cbe
00000170: 76f0 b0bd bd67 ddbd 005c e7bc c74f 953c
00000180: 6c80 d93d 3bb2 723e d9d1 303f 1085 e33c
00000190: f428 00bd a021 57bd 72ec 253e ebff b4bd
000001a0: 58ac be3d e08a 6e3e 12e3 1ebf d1aa 1c3d
000001b0: 69a8 b3bd 0d8f e33d 9b01 79bb 538e 6a3e
000001c0: 909e 17bd dae9 c2bd 9011 133e 4ed0 ebbc
000001d0: a8c7 50be 4308 4dbe 036c f73b 8d6a 2c3e
000001e0: a1ea 243e 044e 3c3d 6ba3 e63d d896 b73c
000001f0: 2ee7 5e3a 6123 7e3e 789f 443d 1456 45bd
00000200: 0dc0 9cbd a003 cd3b fc48 90be b791 c43d
00000210: e9cb cc3c 8188 f9bd d815 babd 20bd 8a3d
00000220: 02f3 77bd 1211 4f3d 198a 02be 127c 28be
00000230: 5c3c b6bd fdef 6f3d 21eb 143d 525d 75ba
00000240: aa7e 24be 6338 a7be 6467 01bf fa9c b23d
00000250: f061 3dbe 6ed9 393c 5649 dbbd 5dad f1bd
00000260: 19db 2abd d740 b83e 80db fcbe 66ca 92bd
00000270: 1b7d 3dbe 5a0f b03e 4174 5bbe 2939 41bd
00000280: fafa 5e3e 1925 0bbe ec04 1dbe 9567 9bbe
00000290: a88b 063e 046f ffbd 530e 903c 85fe d5be
000002a0: 0fde a03d 142e 6a3d 83ff f63d 6342 d93d
000002b0: 24b0 963d f86f d0bc acdd e9bd 3f92 e9be
000002c0: 9ebb fa3b 4973 ecbd 4e81 d53e 96ab 333d
000002d0: 8b17 d73d 70c9 6dbd d134 fd3a f354 a43e
000002e0: 6c0f 4fbe f840 113e bbe7 babd 3299 773d
000002f0: 681e 50bd 5a71 9f3e 2572 293d a020 b9bd
00000300: 4033 cf3b 1228 2bba c759 01be df3e 16bd
00000310: 3a5f 773e b813 cabe 9fe8 9fbe 0fa4 4bbe
00000320: 3cce ae3d 94c3 113c f477 09be f77b 8cbd
00000330: b019 ac3d e2e0 5abd 51e5 adbd 76fd 25bd
00000340: 707d 86be 8233 b93d e17b d03d e4ad 4c3c
00000350: 4fd5 8b3d 4d10 bf3e 05d5 b2be 8b26 10bd
00000360: 8acb 5f3d 7038 573d 8b0a d33d f6da 03be
00000370: 89e2 453c d46a b73d 318d 0abe 9872 19bc
00000380: bc43 13bf 3978 043e 624a 78be 35d5 3abd
00000390: 38de cabc bddd 913d d90f a33d 3540 aabb
000003a0: 96c2 043e 9109 483d f9d5 f3bd c2ef 123f
000003b0: 159f 863e cbd0 ec3d 8626 b7be 304f d8bb
000003c0: d11d 113e c53b 13bf 67da e9bd aff4 a7be
000003d0: 4616 153d f7ea 14be 7b9c cabe 9094 7fbd
000003e0: 997f 8ebd d6be ad3c 0cf5 2c3e 4556 173d
000003f0: de05 833d 2141 263e 0ef1 ddbd d823 47bc

actor.mu.2.bias f4 [256]
0.027396113 0.026646052 -0.016708625 0.047361404 0.02010524 -0.02092689 -0.10785856 0.06948821
0.039027978 0.010074394 0.09235121 -0.112164274 0.07146007 0.017671332 0.0048735905 0.025456857
-0.03975201 -0.012277049 -0.06807809 -0.071350664 -0.022944449 -0.01855354 0.08363266 0.022093257
-0.0630486 0.0449067 -0.004247666 -0.06425217 -0.038491026 -0.08298029 -0.006005166 9.054544e-05
0.021008063 0.07706491 0.06613312 -0.010043732 0.052021038 -0.034918755 0.039635714 -0.0382552
0.01969063 -0.04759502 -0.06953013 -0.03331622 -0.06730537 -0.04863706 0.092082985 0.066107504
0.036354803 0.0034257781 0.02425678 0.024305051 0.12300294 -0.025878036 0.0023761177 -0.035342336
-0.08262927 0.029582813 0.034587316 -0.16813065 0.06381858 0.054299403 -0.046498317 0.034493994
-0.04492721 0.008959316 0.028100153 -0.0230092 -0.020859918 -0.03999736 -0.023276387 -0.022753404
0.039728686 -0.059217133 0.05793488 -0.09631822 -0.10511024 -0.007621268 -0.057418242 0.0431544
-0.013719441 -0.09735902 -0.005193526 -0.083805375 0.032146923 -0.02563553 0.041778818 0.032165296
0.061508045 -0.04030727 -0.034887105 0.03254192 0.024919199 0.03952862 0.079893075 -0.022352668
-0.002194175 -0.07913869 -0.12746508 0.02204251 0.00748203 -0.07073627 0.08025985 -0.06691876
-0.0049221907 0.001718373 -0.15857309 0.061810236 -0.0577797 -0.11831508 -0.044005487 -0.08103506
-0.027074039 -0.07714067 0.047325794 0.079663634 -0.11679216 -0.024027506 0.043211203 -0.06167937
-0.0441362 -0.006708842 -0.007605651 -0.06393837 -0.040741492 0.086505204 -0.072910555 0.035594612
0.004268906 -0.019631805 0.04767803 0.038311858 -0.11675603 -0.096464835 -0.0056662178 0.08360523
-0.0015097173 -0.040758125 -0.034359287 -0.14979863 0.061375458 -0.053027797 0.030466106 0.035109844
0.03334667 -0.054424834 -0.0653545 -0.09505448 0.15644921 -0.029570922 -0.032464013 0.032293953
-0.017048363 -0.0456836 -0.015868409 -0.063537225 -0.0806931 -0.06672161 0.021825535 -0.0048146704
-0.08870718 -0.02428135 -0.0066103083 -0.017495183 0.048268806 -0.033238407 -0.022407008 0.0829803
-0.04978357 -0.055956393 0.0013523975 0.022004154 0.037660643 0.021119948 0.0061021126 -0.09429519
-0.105768465 -0.014123729 0.022453366 -0.08202765 -0.06766918 -0.017508436 -0.03325728 0.05374622
-0.014391139 0.0267815 -0.058839425 -0.10299944 -0.062174726 -0.020364406 -0.0059425207 -0.015535632
-0.00082017074 -0.005091367 -0.046589352 -0.14471808 -0.020144759 -0.04686221 0.012152664 0.010791105
0.008215497 0.11485356 -0.07257458 -0.04692469 -0.0035950004 -0.04119865 0.03256536 0.086514175
0.021445848 0.03146635 -0.05490468 -0.055465274 0.045461528 0.08368835 -0.031924777 -0.069235355
0.025400322 0.0010898733 0.11378603 0.033163495 0.11423064 0.06325397 0.0725135 0.020164788
0.031544093 -0.061330415 -0.029140485 -0.023313625 0.077668905 -0.004471032 -0.059500948 -0.036560517
-0.021133164 0.06869823 0.027949344 -0.05191431 0.040378317 -0.09600569 0.0010496395 -0.10756265
0.052859854 -0.027627712 -0.1237816 0.0072384076 0.045680474 -0.029390125 0.05143962 0.060833596
0.03365424 -0.045273595 -0.0055290037 -0.14927827 -0.12845045 0.013390962 -0.021565253 0.0703374
00000000: d06d e03c d248 da3c 87e0 88bc 08fe 413d
00000010: bfb3 a43c df6e abbc f3e4 dcbd d64f 8e3d
00000020: cddb 1f3d 120f 253c a222 bd3d 62b6 e5bd
00000030: a859 923d 78c3 903c a4b2 9f3b e68a d03c
00000040: 01d3 22bd ad25 49bc 876c 8bbd 4c20 92bd
00000050: fff5 bbbc 98fd 97bc 9a47 ab3d ebfc b43c
00000060: a01f 81bd 16f0 373d 0130 8bbb a496 83bd
00000070: c4a8 1dbd 92f1 a9bd fcc6 c4bb 37e3 bd38
00000080: 1a19 ac3c 35d4 9d3d cd70 873d 778e 24bc
00000090: 0314 553d f806 0fbd 0f59 223d 7cb1 1cbd
000000a0: 3e4e a13c fff2 42bd d065 8ebd 9776 08bd
000000b0: 66d7 89bd a737 47bd 0196 bc3d 5f63 873d
000000c0: c6e8 143d 0583 603b 28b6 c63c 631b c73c
000000d0: f7e8 fb3d 2dfe d3bc a4b8 1b3b 20c3 10bd
000000e0: 8939 a9bd a857 f23c 6eab 0d3d 712a 2cbe
000000f0: 51b3 823d 0d69 5e3d 0575 3ebd 9349 0d3d
00000100: 9805 38bd 18ca 123c 4b32 e63c ca7d bcbc
00000110: 6be2 aabc 46d4 23bd 1fae bebc 5965 babc
00000120: 8cba 223d aa8d 72bd 204d 6d3d 7d42 c5bd
00000130: 0a44 d7bd d4bb f9bb 642f 6bbd abc2 303d
00000140: 82c7 60bc 2a64 c7bd 742e aabb 27a2 abbd
00000150: 7eac 033d 9a01 d2bc 4420 2b3d c2bf 033d
00000160: dcef 7b3d 3c19 25bd c8e5 0ebd ad4a 053d
00000170: 5923 cc3c c3e8 213d fb9e a33d f11c b7bc
00000180: 26cc 0fbb 7713 a2bd 3586 02be 7e92 b43c
00000190: d12b f53b 2dde 90bd 475f a43d b40c 89bd
000001a0: 544a a1bb 083b e13a fc60 22be bb2c 7d3d
000001b0: 68aa 6cbd 2d4f f2bd 193f 34bd b6f5 a5bd
000001c0: 60ca ddbc edfb 9dbd b1d8 413d b026 a33d
000001d0: ba30 efbd 55d5 c4bc 3bfe 303d 82a3 7cbd
000001e0: 29c8 34bd d8d5 dbbb d338 f9bb 1ff2 82bd
000001f0: 8de0 26bd a429 b13d 2152 95bd a8cb 113d
00000200: 2ee2 8b3b e1d2 a0bc 0a4a 433d e5ec 1c3d
00000210: c91d efbd 5b8f c5bd aeab b9bb 3839 ab3d
00000220: b5e1 c5ba fef1 26bd 53bc 0cbd d064 19be
00000230: d564 7b3d ad33 59bd 0e94 f93c 57cf 0f3d
00000240: 8596 083d 93ec 5ebd 95d8 85bd ecab c2bd
00000250: 3934 203e b83e f2bc fcf8 04bd aa46 043d
00000260: 02a9 8bbc ba1e 3bbd 77fe 81bc ce1f 82bd
00000270: 6d42 a5bd 57a5 88bd 77cb b23c 62c4 9dbb
00000280: 1cac b5bd afe9 c6bc 499b d8bb 0f52 8fbc
00000290: 83b5 453d ff24 08bd e78e b7bc 93f1 a93d
000002a0: dbe9 4bbd 8832 65bd ee42 b13a 0e42 b43c
000002b0: 0c42 1a3d be03 ad3c 3bf4 c73b d61d c1bd
000002c0: 239d d8bd 3767 67bc 1ff0 b73c 1dfe a7bd
000002d0: 2496 8abd da6d 8fbc c938 08bd ff24 5c3d
000002e0: d0c8 6bbc e064 db3c 9c01 71bd 5ff1 d2bd
000002f0: edaa 7ebd 41d3 a6bc 7ab9 c2bb 2a89 7ebc
00000300: ba00 57ba 7bd5 a6bb 7ad4 3ebd fa30 14be
00000310: 9f06 a5bc 97f2 3fbd f81b 473c 2dcd 303c
00000320: 4b9a 063c 5838 eb3d fba1 94bd 1b34 40bd
00000330: 199a 6bbb eabf 28bd 4163 053d 582e b13d
00000340: 34af af3c dce2 003d bbe3 60bd 8e2f 63bd
00000350: de35 3a3d cc64 ab3d 8ec3 02bd 44cb 8dbd
00000360: 5614 d03c 14da 8e3a a608 e93d 72d6 073d
00000370: c1f1 e93d 4c8b 813d f581 943d a030 a53c
00000380: 6134 013d 9a35 7bbd 07b8 eebc 37fc bebc
00000390: e010 9f3d bc81 92bb 44b7 73bd 7bc0 15bd
000003a0: 751f adbc a8b1 8c3d 06f6 e43c 19a4 54bd
000003b0: bc63 253d a29e c4bd 0f94 893a cf49 dcbd
000003c0: 9383 583d 8353 e2bc 3581 fdbd 2a30 ed3b
000003d0: 731b 3b3d 8fc3 f0bc 5ab2 523d a62c 793d
000003e0: 07d9 093d ce70 39bd a52c b5bb 67dc 18be
000003f0: 8488 03be c465 5b3c 9da9 b0bc 0e0d 903d

actor.mu.4.weight f4 [128, 256]
-1.0947866 -0.09122071 0.1250245 0.3310922 0.06244599 -0.03417878 -0.010377689 -0.3193621
-0.014156219 -0.04981771 0.0974765 -0.30571526 -0.124353334 0.1846407 0.053918354 -0.19170555
0.10042315 0.14999318 -0.1469271 0.13418108 -0.027386256 -0.24198316 -0.042010203 -0.014502633
-0.17660616 0.03449334 -0.048634887 -0.2503792 0.014529145 -0.14518702 0.2546396 0.21135435
0.06289995 -0.10880508 0.025879404 -0.1635877 -0.15802482 -0.21132888 0.06795648 -0.021320812
0.021977343 0.040476084 0.023415914 -0.05508964 -0.0016368588 -0.026238382 0.09969616 -0.03726153
0.19182825 0.17160937 -0.14203805 -0.005627109 0.00384056 -0.021615315 -0.03186385 -0.058484055
-0.60950637 -0.12669614 -0.12984547 0.6662668 -0.028123131 -0.16530703 0.1407995 -0.20378946
0.11067517 -0.052786954 0.05289904 -0.03947469 0.054810174 0.014620222 0.3641867 0.05310118
0.055518895 -0.17691135 -0.28723976 -0.15971534 0.14365476 -0.24873218 -0.082324445 0.08098813
-0.11654668 -0.5631325 -0.04917565 -0.22205015 0.018093366 0.09309778 0.13061126 -0.078195676
-0.12616754 -0.003844783 -0.54815 -0.020946762 0.010205184 0.10683617 0.026388802 -0.056590457
-0.6268523 0.18760684 0.041361496 -0.19261208 0.18780375 -0.27756026 0.0023101976 0.064814135
0.08291296 -0.6105519 0.5954463 -0.21972132 0.15921156 -0.098620705 0.16848548 -0.0070091854
0.42431116 0.05601106 -0.027779577 0.20742173 -0.3674798 -0.31621 -0.8055644 -0.023974577
-0.043962013 -0.8013836 0.022729719 0.22617064 0.35412434 0.048587665 0.113283224 0.017032903
-0.11244554 -0.35576597 0.04288644 0.040030625 -0.86443573 0.30938494 -0.4966667 -0.1930687
-0.24481103 -0.0030331842 0.040943764 0.1268983 0.24022007 0.36904347 0.031111458 -0.186918
0.0014340845 -0.027333826 0.041781697 0.424387 -0.18863715 -0.058731798 -0.2494791 0.11308777
-0.23196523 -0.06726821 -0.19573542 0.064877264 -0.41620612 -0.3226749 0.19564906 -0.033481114
0.08793255 0.34837613 0.0032456785 0.05676356 0.062252402 -0.076261416 0.024361175 -0.2185644
0.052546088 -0.0026225646 0.10167681 -0.16957417 -0.091552876 -0.099069834 -0.025520774 -0.0017474947
0.24730103 0.21822654 0.031920567 -0.07161879 0.0648869 -0.38072193 -0.15771747 0.16054091
0.036931813 0.017279912 -0.22833696 0.065579906 -0.18906145 -0.13944884 0.13311262 0.040675063
-0.58480465 0.014303877 0.22676331 0.20149523 0.120215535 0.1981629 -0.13328286 -0.07060009
0.18683764 -0.07143084 -0.12444415 -0.04409196 -0.06486704 0.15528888 0.009445254 0.12580033
-0.062856175 0.1860016 -0.16949065 0.069986604 -0.012083736 -0.06290581 0.0014522179 -0.045400657
-0.021161633 -0.030685948 0.03777086 -0.009414293 0.028758813 0.019654352 -0.12835506 -0.2111768
0.039814882 -0.021133216 -0.1134516 -0.3849833 -0.13646655 0.010349287 -0.31418803 0.041806027
0.07268297 -0.11105898 -0.008941817 0.15387563 -0.36056247 -0.22538859 0.1035983 -0.0057803094
0.008358236 0.20204821 -0.25554335 -0.20397852 0.057401318 -0.05803541 0.19088675 -0.04397114
0.09994715 0.0021365825 -0.062407896 0.105797514 0.753031 0.009962707 -0.3535909 0.27342877
00000000: f821 8cbf ecd1 babd 6c06 003e eb84 a93e
00000010: 5ec7 7f3d 0cff 0bbd 2f07 2abc 6e83 a3be
00000020: 7cef 67bc a80d 4cbd c2a1 c73d b686 9cbe
00000030: f6ac febd 7412 3d3e 7ed9 5c3d 764e 44be
00000040: a7aa cd3d d097 193e 0f74 16be c466 093e
00000050: 2459 e0bc 6fca 77be e412 2cbd 749c 6dbc
00000060: 3fd8 34be e348 0d3d 6035 47bd b431 80be
00000070: a70b 6e3c e8ab 14be 1f60 823e 466d 583e
00000080: b0d1 803d 33d5 debd 0b01 d43c 8983 27be
00000090: 42d1 21be 9966 58be c42c 8b3d fca8 aebc
000000a0: d409 b43c 40ca 253d bbd2 bf3c ada5 61bd
000000b0: de8b d6ba e0f1 d6bc 802d cc3d 8c9f 18bd
000000c0: a06e 443e 5eba 2f3e 6c72 11be 9d63 b8bb
000000d0: e8b1 7b3b 9a12 b1bc ab83 02bd fa8c 6fbd
000000e0: 9c08 1cbf a2bc 01be 36f6 04be 7690 2a3f
000000f0: 7b62 e6bc 3f46 29be be2d 103e 2fae 50be
00000100: aaa9 e23d 2237 58bd aaac 583d 36b0 21bd
00000110: a280 603d a889 6f3c ae76 ba3e 9f80 593d
00000120: c867 633d 4028 35be 1711 93be 6b8c 23be
00000130: 3c1a 133e a6b3 7ebe b899 a8bd 1bdd a53d
00000140: 07b0 eebd 7429 10bf 686c 49bd 1d61 63be
00000150: 8a38 943c 0daa be3d f5be 053e 0e25 a0bd
00000160: 1032 01be c1f8 7bbb 8f53 0cbf 8b98 abbc
00000170: a533 273c eccc da3d 542d d83c 65cb 67bd
00000180: 6479 20bf 021c 403e ac6a 293d 1a3c 45be
00000190: a04f 403e 611c 8ebe af66 173b 46bd 843d
000001a0: 45ce a93d 214d 1cbf 2b6f 183f a0fe 60be
000001b0: 5b08 233e a7f9 c9bd 7587 2c3e 4fad e5bb
000001c0: 503f d93e da6b 653d ff91 e3bc 5d66 543e
000001d0: 5026 bcbe 47e6 a1be 7839 4ebf 5566 c4bc
000001e0: 8311 34bd 7a27 4dbf ad33 ba3c 4799 673e
000001f0: c94f b53e dc03 473d 0901 e83d 9688 8b3c
00000200: d949 e6bd f526 b6be b1a9 2f3d 27f7 233d
00000210: a94b 5dbf b467 9e3e 194b febe cdb3 45be
00000220: beaf 7abe 63c8 46bb a6b4 273d a1f1 013e
00000230: 40fc 753e 44f3 bc3e 75dd fe3c 6f67 3fbe
00000240: e4f7 bb3a 30eb dfbc 4923 2b3d 4149 d93e
00000250: 192a 41be c190 70bd 7377 7fbe 909a e73d
00000260: 4b88 6dbe eac3 89bd de6e 48be 5fde 843d
00000270: f818 d5be a535 a5be 3a58 483e 7e23 09bd
00000280: fb15 b43d 5b5e b23e 73b5 543b e880 683d
00000290: 60fc 7e3d f22e 9cbd 1691 c73c 59cf 5fbe
000002a0: 913a 573d 55df 2bbb ee3b d03d daa4 2dbe
000002b0: 1380 bbbd 20e5 cabd f110 d1bc 310c e5ba
000002c0: 7b3c 7d3e c776 5f3e 24bf 023d dfac 92bd
000002d0: 6ce3 843d fced c2be b080 21be d664 243e
000002e0: d045 173d 9a8e 8d3c 2ad1 69be c24e 863d
000002f0: 5399 41be adcb 0ebe ad4e 083e e59a 263d
00000300: c2b5 15bf cf5a 6a3c a434 683e c454 4e3e
00000310: 9033 f63d 37eb 4a3e 4d7b 08be c896 90bd
00000320: 5e52 3f3e 554a 92bd 93dc febd c599 34bd
00000330: 03d9 84bd 0c04 1f3e 44c0 1a3c cdd1 003e
00000340: bdba 80bd 3477 3e3e f58e 2dbe 2355 8f3d
00000350: ddfa 45bc c3d4 80bd 5958 be3a 0af6 39bd
00000360: 295b adbc 1961 fbbc 9eb5 1a3d 683e 1abc
00000370: 9a97 eb3c 2a02 a13c 826f 03be bb3e 58be
00000380: ee14 233d 911f adbc 5059 e8bd 881c c5be
00000390: e3bd 0bbe 0e90 293c 41dd a0be cc3c 2b3d
000003a0: cfda 943d e472 e3bd b380 12bc 9391 1d3e
000003b0: a59b b8be 44cc 66be 582b d43d c068 bdbb
000003c0: fcf0 083c bae5 4e3e 94d6 82be bfdf 50be
000003d0: a51d 6b3d 8ab6 6dbd d177 433e 151b 34bd
000003e0: 17b1 cc3d e805 0c3b 6c9f 7fbd 5eac d83d
000003f0: a4c6 403f 9f3a 233c de09 b5be dbfe 8b3e

actor.mu.4.bias f4 [128]
-0.032285236 -0.08447332 -0.03250608 -0.12727705 -0.19238281 -0.017448902 0.027503222 -0.0057780333
-0.04837647 0.02986255 0.02440414 -0.0071785618 -0.021020852 -0.01488219 -0.0029263636 0.022510674
0.06572788 0.05374732 -0.07197699 -0.024583302 -0.07333915 0.02458078 -0.23055193 -0.10334745
-0.02500295 -0.1077674 -0.07394881 0.022625852 0.057535656 -0.08925725 0.06531465 -0.03767842
0.10474011 0.029335184 0.06468164 -0.16692723 0.08402789 0.05634402 0.072982065 0.045301974
-0.100828305 0.041074928 0.07775626 -0.070002444 0.098112665 0.07155969 -0.017009508 0.03355754
0.028559383 0.017057935 -0.019308878 0.031963114 0.011636526 -0.062295947 -0.087704524 -0.15076107
-0.044451285 -0.009394321 0.009380667 0.013516116 -0.058841582 0.09534363 -0.016288472 0.0014018419
0.05168889 0.1510056 -0.0454511 0.019695975 -0.04533384 0.07290259 -0.10199783 -0.05828242
0.04609712 0.021509752 -0.075667426 -0.047769878 0.13865268 -0.007303493 -0.11474834 -0.076754615
0.053359512 0.0024828608 -0.056317568 -0.042316068 -0.018932015 -0.049866427 -0.0017542891 -0.17641714
-0.0109835975 0.012168005 -0.012268142 0.039180104 0.07393241 0.0074706967 -0.039277624 0.042704243
0.023506543 0.10169419 -0.026168045 -0.06886225 -0.056655355 -0.03679627 -0.0045701168 -0.025500955
0.053547192 0.046864685 0.047115836 -0.04073084 0.010757967 0.054950323 -0.18265307 0.11128264
0.0355972 -0.1696274 -0.12443741 0.014538278 0.0027512687 -0.04935136 -0.029395984 0.10158638
0.011164031 -0.05894825 -0.063125044 -0.045143187 0.030865408 -0.018161517 -0.16000319 -0.10654696
00000000: 863d 04bd 5900 adbd 1825 05bd ea54 02be
00000010: 0000 45be 00f1 8ebc 704e e13c a855 bdbb
00000020: 6826 46bd 4ea2 f43c 31eb c73c 243a ebbb
00000030: ec33 acbc 6ed4 73bc 3cc8 3fbb 4e68 b83c
00000040: 579c 863d 2626 5c3d ac68 93bd ec62 c9bc
00000050: d632 96bd a25d c93c ce15 6cbe d4a7 d3bd
00000060: fdd2 ccbc 28b5 dcbd 7972 97bd da59 b93c
00000070: 82aa 6b3d 81cc b6bd b0c3 853d b054 1abd
00000080: fc81 d63d 5750 f03c cf77 843d f9ee 2abe
00000090: d016 ac3d fdc8 663d 9f77 953d 908e 393d
000000a0: 127f cebd 2f3e 283d ad3e 9f3d 715d 8fbd
000000b0: 4bef c83d e38d 923d 8657 8bbc a273 093d
000000c0: 5ef5 e93c 15bd 8b3c a72d 9ebc c1eb 023d
000000d0: 21a7 3e3c 092a 7fbd 6e9e b3bd 1c61 1abe
000000e0: 8d12 36bd a3ea 19bc 5eb1 193c b372 5d3c
000000f0: df03 71bd 8543 c33d 676f 85bc 02be b73a
00000100: bbb7 533d 36a1 1a3e ef2a 3abd 7459 a13c
00000110: faaf 39bd f44d 953d 3de4 d0bd 8cb9 6ebd
00000120: 55d0 3c3d 3835 b03c 86f7 9abd 59aa 43bd
00000130: f8fa 0d3e 2452 efbb 2d01 ebbd 8631 9dbd
00000140: 818f 5a3d 7eb7 223b 40ad 66bd 9d53 2dbd
00000150: 5017 9bbc bd40 4cbd 2df0 e5ba b2a6 34be
00000160: 8cf4 33bc 505c 473c 5100 49bc 517b 203d
00000170: e069 973d bfcc f43b 93e1 20bd a5ea 2e3d
00000180: cb90 c03c 0b45 d03d 5e5e d6bc a707 8dbd
00000190: 720f 68bd b0b7 16bd ebc0 95bb 61e7 d0bc
000001a0: 4d54 5b3d 2ff5 3f3d 89fc 403d 62d5 26bd
000001b0: 2f42 303c 9713 613d 6809 3bbe 27e8 e33d
000001c0: 5fce 113d ceb2 2dbe 0ad9 febd f531 6e3c
000001d0: a14e 343b a724 4abd d9cf f0bc 850c d03d
000001e0: 57e9 363c b873 71bd b447 81bd 10e8 38bd
000001f0: 74d9 fc3c 76c7 94bc e0d7 23be 4b35 dabd

actor.mu.6.weight f4 [3, 128]
-0.16582574 0.054126997 0.16445225 0.5334653 0.82873255 -1.4168929 1.3534099 -0.89605683
-0.17647159 0.7067295 -0.067501195 -0.37134278 0.06210599 -0.08325131 0.09821895 -0.10597637
-0.07559617 -0.0015158582 -0.05772224 -0.088658825 0.49258193 0.27631366 0.99785393 1.6095756
0.10069907 -0.5137649 2.5737648 -0.32088608 0.2131739 0.7596525 0.002440713 -0.08766973
-0.36451066 0.5270081 0.0015764548 0.93898255 1.6202124 0.082776055 0.052398432 0.83777183
1.8365091 0.01513887 -0.26892152 0.461743 1.2910916 -0.08301464 0.1432682 0.67749375
-0.12529042 -0.32928735 -0.071494356 0.2753306 0.065589815 -0.010280314 0.78413546 0.18026297
1.0165321 -0.017928801 1.6734772 -0.1954486 -0.5166001 0.8290935 -0.17219588 -0.33855158
0.20185661 1.360611 0.007409457 -0.21028666 -0.10569191 -1.1082681 -0.028672764 0.0057096714
0.72570586 0.06325028 0.37544537 -0.164836 -0.23062016 0.3104921 -0.34091422 -0.111906655
-0.0077546383 0.057597086 0.12772901 1.1296198 0.12982655 -0.032130174 -0.019910695 1.4536176
0.39100036 0.810446 0.18509328 -0.03416717 -0.47260413 -0.059998326 -0.8281544 3.5107794
-0.27312574 0.08063935 0.47155958 0.734254 0.14691465 -0.37680867 0.7492964 0.061857782
0.71838427 -0.17512986 -0.060766887 0.43682343 -0.04062739 -0.07134377 0.9565717 -0.24879108
-0.08694763 0.91611093 -0.20383887 -0.07620088 0.014343637 0.19707002 0.97078216 0.19932231
3.690508 0.30652145 0.6205902 0.1219356 -0.2640913 0.67603534 -1.0402228 -0.6603298
0.10360678 -0.087382615 -0.0043287952 -0.59762263 1.3924155 -0.58433586 -0.0064696902 0.18005747
-0.3559582 0.9002456 -0.011961094 -0.10035693 0.064519614 -0.119313754 -0.17973329 0.66883105
0.6012014 0.34733266 0.08738068 -0.4297934 -0.17251176 -0.16962326 1.9364172 -0.18241744
-0.2012006 -0.32354683 2.2678154 0.38793242 -0.09264202 1.1139771 -0.4403455 -0.06732538
0.007186737 0.6767583 -0.019977408 0.76024365 -0.13819616 -0.17351824 -0.62196404 1.0471338
0.19681944 -0.70223343 -0.33589575 -0.034160126 -0.29610968 -0.09890023 -0.37779906 1.4660952
-0.14894551 -0.13487379 -0.16726544 -0.3623424 -0.24867193 0.071390614 0.19298117 0.36472812
1.5449406 -0.0037133095 -0.005619508 -0.0897473 0.5476888 -0.09678759 -0.020454934 -0.1294298
-0.6386489 0.7008572 -0.07235409 0.15157437 -0.113282666 0.0925597 -0.026932552 -0.07355854
1.4975175 -0.26925403 -0.17087178 1.8437841 -0.4444737 0.114794485 1.3283437 0.032243572
0.0251108 -0.02909478 -0.26623064 0.025753817 -0.07643691 -0.0013598925 -0.1454047 0.9487215
-0.31858325 -0.2326485 -0.3403511 0.11761938 -0.34026837 -0.15114176 0.43218154 -0.05895677
-0.4364324 0.07502962 -0.20881177 -0.18447421 -0.048309475 0.056402758 -1.1645434 -0.42158544
0.96028095 -0.4943315 0.42526162 0.12445695 -0.23122859 0.13107353 0.45253855 -0.40943614
-0.14051154 1.0650514 0.40871266 0.46530673 -0.138163 -0.2726943 1.9191315 -0.28975064
0.06620382 -0.060987018 -0.09084239 -0.1980057 0.9331925 -0.89844227 0.16556104 0.90650344
00000000: 39ce 29be 45b4 5d3d 2c66 283e 2f91 083f
00000010: d127 543f bf5c b5bf 893c ad3f fb63 65bf
00000020: f8b4 34be 39ec 343f 113e 8abd a420 bebe
00000030: da62 7e3d aa7f aabd 0427 c93d 240a d9bd
00000040: 2ad2 9abd c3af c6ba 286e 6cbd c292 b5bd
00000050: b333 fc3e fc78 8d3e 5b73 7f3f 9306 ce3f
00000060: 503b ce3d 1986 03bf 90b8 2440 2e4b a4be
00000070: 424a 5a3e 9678 423f 5ff4 1f3b 308c b3bd
00000080: 24a1 babe 01ea 063f 0ca1 ce3a 2961 703f
00000090: 1f63 cf3f 7e86 a93d bd9f 563d 3778 563f
000000a0: bb12 eb3f 0609 783c 15b0 89be 9469 ec3e
000000b0: 7d42 a53f 9403 aabd e6b4 123e 3b70 2d3f
000000c0: 224c 00be 5a98 a8be a26b 92bd 22f8 8c3e
000000d0: f453 863d c36e 28bc 1abd 483f db96 383e
000000e0: b91d 823f 6cdf 92bc 8034 d63f ae23 48be
000000f0: e73f 04bf 793f 543f 1e54 30be a256 adbe
00000100: 80b3 4e3e 8028 ae3f 08cb f23b 6355 57be
00000110: 0075 d8bd bbdb 8dbf 25e3 eabc 3218 bb3b
00000120: dcc7 393f 5d89 813d 603a c03e c5ca 28be
00000130: b127 6cbe d2f8 9e3e 4f8c aebe 512f e5bd
00000140: 9f1a febb ecea 6b3d 65cb 023e 6297 903f
00000150: 40f1 043e ee9a 03bd c11b a3bc 2410 ba3f
00000160: 3331 c83e 6479 4f3f 1889 3d3e e0f2 0bbd
00000170: 2bf9 f1be cec0 75bd ed01 54bf 9cb0 6040
00000180: 23d7 8bbe 3e26 a53d 4270 f13e 12f8 3b3f
00000190: cb70 163e 11ed c0be e4d1 3f3f 965e 7d3d
000001a0: 08e8 373f 3e55 33be b3e6 78bd 52a7 df3e
000001b0: e868 26bd af1c 92bd e2e1 743f 17c3 7ebe
000001c0: 9911 b2bd 3f86 6a3f 23bb 50be 350f 9cbd
000001d0: 9301 6b3c b9cc 493e 2e85 783f 261b 4c3e
000001e0: 4831 6c40 61f0 9c3e 00df 1e3f 5fb9 f93d
000001f0: fa36 87be a710 2d3f 0526 85bf 600b 29bf
00000200: cb2f d43d a8f5 b2bd 91d8 8dbb ccfd 18bf
00000210: ac3a b23f 0997 15bf b2ff d3bb fc60 383e
00000220: 2740 b6be 7f76 663f 77f8 43bc ef87 cdbd
00000230: dc22 843d c55a f4bd 010c 38be 8338 2b3f
00000240: 56e8 193f 96d5 b13e a4f4 b23d e10d dcbe
00000250: eca6 30be b8b1 2dbe 85dc f73f a3cb 3abe
00000260: 8807 4ebe eea7 a5be e323 1140 149f c63e
00000270: 19bb bdbd cd96 8e3f f774 e1be e4e1 89bd
00000280: b87e eb3b 0840 2d3f a9a7 a3bc 549f 423f
00000290: 4b83 0dbe c4ae 31be 0939 1fbf 7b08 863f
000002a0: 098b 493e 92c5 33bf 87fa abbe 7deb 0bbd
000002b0: b09b 97be 348c cabd e16e c1be 02a9 bb3f
000002c0: 2c85 18be 5b1c 0abe a247 2bbe f184 b9be
000002d0: dba3 7ebe 3e35 923d db9c 453e a5bd ba3e
000002e0: 9dc0 c53f ff5a 73bb da23 b8bb 6fcd b7bd
000002f0: 5535 0c3f 9238 c6bd 1b91 a7bc 3f89 04be
00000300: 7f7e 23bf 616b 333f 622e 94bd 5036 1b3e
00000310: be00 e8bd f18f bd3d a8a1 dcbc dca5 96bd
00000320: a7ae bf3f aadb 89be 03f9 2ebe 1e01 ec3f
00000330: 0f92 e3be 5f19 eb3d 2b07 aa3f d611 043d
00000340: 2ab5 cd3c 2d58 eebc 624f 88be abf9 d23c
00000350: f48a 9cbd 6c3e b2ba f8e4 14be 6adf 723f
00000360: 581d a3be 693b 6ebe 8042 aebe 6ee2 f03d
00000370: a837 aebe e8c4 1abe e646 dd3e a77c 71bd
00000380: 1174 dfbe 21a9 993d c1d2 55be cfe6 3cbe
00000390: 28e0 45bd 9406 673d c20f 95bf 0cda d7be
000003a0: f9d4 753f 0519 fdbe e4bb d93e 49e3 fe3d
000003b0: 30c7 6cbe 2438 063e 22b3 e73e 9da1 d1be
000003c0: 42e2 0fbe 9b53 883f c942 d13e af3c ee3e
000003d0: 9a7a 0dbe 969e 8bbe 1aa6 f53f 325a 94be
000003e0: de95 873d 86cd 79bd 930b babd 02c2 4abe
000003f0: b4e5 6e3f 5000 66bf d588 293e 9c10 683f

actor.mu.6.bias f4 [3]
-0.080784544 -0.109277345 0.030878702
00000000: 5e72 a5bd cdcc dfbd 55f5 fc3c
